{"format": "graph-model", "generatedBy": "2.9.1", "convertedBy": "TensorFlow.js Converter v4.16.0", "signature": {"inputs": {"tokenized_sequence": {"name": "tokenized_sequence:0", "dtype": "DT_INT32", "tensorShape": {"dim": [{"size": "-1"}, {"size": "512"}]}}}, "outputs": {"Identity_1:0": {"name": "Identity_1:0", "dtype": "DT_FLOAT", "tensorShape": {"dim": [{"size": "-1"}, {"size": "512"}]}}, "j_allele": {"name": "Identity_2:0", "dtype": "DT_FLOAT", "tensorShape": {"dim": [{"size": "-1"}, {"size": "7"}]}}, "Identity_3:0": {"name": "Identity_3:0", "dtype": "DT_FLOAT", "tensorShape": {"dim": [{"size": "-1"}, {"size": "512"}]}}, "mutation_rate": {"name": "Identity_4:0", "dtype": "DT_FLOAT", "tensorShape": {"dim": [{"size": "-1"}, {"size": "1"}]}}, "d_allele": {"name": "Identity:0", "dtype": "DT_FLOAT", "tensorShape": {"dim": [{"size": "-1"}, {"size": "34"}]}}, "Identity_6:0": {"name": "Identity_6:0", "dtype": "DT_FLOAT", "tensorShape": {"dim": [{"size": "-1"}, {"size": "512"}]}}, "v_allele": {"name": "Identity_5:0", "dtype": "DT_FLOAT", "tensorShape": {"dim": [{"size": "-1"}, {"size": "198"}]}}}}, "modelTopology": {"node": [{"name": "StatefulPartitionedCall/heavy_chain_align_airr/conv_residual_feature_extraction_block_2/conv1d_and__batch_norm_14/conv1d_44/Conv1D/ExpandDims/dim", "op": "Const", "attr": {"value": {"tensor": {"dtype": "DT_INT32", "tensorShape": {}}}, "dtype": {"type": "DT_INT32"}}}, {"name": "StatefulPartitionedCall/heavy_chain_align_airr/conv_residual_feature_extraction_block_2/conv1d_and__batch_norm_14/conv1d_44/Conv1D/ExpandDims_1", "op": "Const", "attr": {"value": {"tensor": {"dtype": "DT_FLOAT", "tensorShape": {"dim": [{"size": "1"}, {"size": "3"}, {"size": "64"}, {"size": "64"}]}}}, "dtype": {"type": "DT_FLOAT"}}}, {"name": "StatefulPartitionedCall/heavy_chain_align_airr/conv_residual_feature_extraction_block_2/conv1d_and__batch_norm_14/conv1d_44/BiasAdd/ReadVariableOp", "op": "Const", "attr": {"value": {"tensor": {"dtype": "DT_FLOAT", "tensorShape": {"dim": [{"size": "64"}]}}}, "dtype": {"type": "DT_FLOAT"}}}, {"name": "StatefulPartitionedCall/heavy_chain_align_airr/conv_residual_feature_extraction_block_2/conv1d_and__batch_norm_14/conv1d_45/Conv1D/ExpandDims/dim", "op": "Const", "attr": {"value": {"tensor": {"dtype": "DT_INT32", "tensorShape": {}}}, "dtype": {"type": "DT_INT32"}}}, {"name": "StatefulPartitionedCall/heavy_chain_align_airr/conv_residual_feature_extraction_block_2/conv1d_and__batch_norm_14/conv1d_45/Conv1D/ExpandDims_1", "op": "Const", "attr": {"value": {"tensor": {"dtype": "DT_FLOAT", "tensorShape": {"dim": [{"size": "1"}, {"size": "3"}, {"size": "64"}, {"size": "64"}]}}}, "dtype": {"type": "DT_FLOAT"}}}, {"name": "StatefulPartitionedCall/heavy_chain_align_airr/conv_residual_feature_extraction_block_2/conv1d_and__batch_norm_14/conv1d_45/BiasAdd/ReadVariableOp", "op": "Const", "attr": {"value": {"tensor": {"dtype": "DT_FLOAT", "tensorShape": {"dim": [{"size": "64"}]}}}, "dtype": {"type": "DT_FLOAT"}}}, {"name": "StatefulPartitionedCall/heavy_chain_align_airr/conv_residual_feature_extraction_block_2/conv1d_and__batch_norm_14/conv1d_46/Conv1D/ExpandDims/dim", "op": "Const", "attr": {"value": {"tensor": {"dtype": "DT_INT32", "tensorShape": {}}}, "dtype": {"type": "DT_INT32"}}}, {"name": "StatefulPartitionedCall/heavy_chain_align_airr/conv_residual_feature_extraction_block_2/conv1d_and__batch_norm_14/conv1d_46/Conv1D/ExpandDims_1", "op": "Const", "attr": {"value": {"tensor": {"dtype": "DT_FLOAT", "tensorShape": {"dim": [{"size": "1"}, {"size": "3"}, {"size": "64"}, {"size": "64"}]}}}, "dtype": {"type": "DT_FLOAT"}}}, {"name": "StatefulPartitionedCall/heavy_chain_align_airr/conv_residual_feature_extraction_block_2/conv1d_and__batch_norm_14/conv1d_46/BiasAdd/ReadVariableOp", "op": "Const", "attr": {"value": {"tensor": {"dtype": "DT_FLOAT", "tensorShape": {"dim": [{"size": "64"}]}}}, "dtype": {"type": "DT_FLOAT"}}}, {"name": "StatefulPartitionedCall/heavy_chain_align_airr/conv_residual_feature_extraction_block_2/conv1d_and__batch_norm_14/batch_normalization_14/batchnorm/mul", "op": "Const", "attr": {"value": {"tensor": {"dtype": "DT_FLOAT", "tensorShape": {"dim": [{"size": "64"}]}}}, "dtype": {"type": "DT_FLOAT"}}}, {"name": "StatefulPartitionedCall/heavy_chain_align_airr/conv_residual_feature_extraction_block_2/conv1d_and__batch_norm_14/batch_normalization_14/batchnorm/sub", "op": "Const", "attr": {"value": {"tensor": {"dtype": "DT_FLOAT", "tensorShape": {"dim": [{"size": "64"}]}}}, "dtype": {"type": "DT_FLOAT"}}}, {"name": "StatefulPartitionedCall/heavy_chain_align_airr/conv_residual_feature_extraction_block_2/conv1d_and__batch_norm_14/max_pooling1d_25/ExpandDims/dim", "op": "Const", "attr": {"value": {"tensor": {"dtype": "DT_INT32", "tensorShape": {}}}, "dtype": {"type": "DT_INT32"}}}, {"name": "StatefulPartitionedCall/heavy_chain_align_airr/conv_residual_feature_extraction_block_2/conv1d_and__batch_norm_13/conv1d_41/Conv1D/ExpandDims/dim", "op": "Const", "attr": {"value": {"tensor": {"dtype": "DT_INT32", "tensorShape": {}}}, "dtype": {"type": "DT_INT32"}}}, {"name": "StatefulPartitionedCall/heavy_chain_align_airr/conv_residual_feature_extraction_block_2/conv1d_and__batch_norm_13/conv1d_41/Conv1D/ExpandDims_1", "op": "Const", "attr": {"value": {"tensor": {"dtype": "DT_FLOAT", "tensorShape": {"dim": [{"size": "1"}, {"size": "3"}, {"size": "64"}, {"size": "64"}]}}}, "dtype": {"type": "DT_FLOAT"}}}, {"name": "StatefulPartitionedCall/heavy_chain_align_airr/conv_residual_feature_extraction_block_2/conv1d_and__batch_norm_13/conv1d_41/BiasAdd/ReadVariableOp", "op": "Const", "attr": {"value": {"tensor": {"dtype": "DT_FLOAT", "tensorShape": {"dim": [{"size": "64"}]}}}, "dtype": {"type": "DT_FLOAT"}}}, {"name": "StatefulPartitionedCall/heavy_chain_align_airr/conv_residual_feature_extraction_block_2/conv1d_and__batch_norm_13/conv1d_42/Conv1D/ExpandDims/dim", "op": "Const", "attr": {"value": {"tensor": {"dtype": "DT_INT32", "tensorShape": {}}}, "dtype": {"type": "DT_INT32"}}}, {"name": "StatefulPartitionedCall/heavy_chain_align_airr/conv_residual_feature_extraction_block_2/conv1d_and__batch_norm_13/conv1d_42/Conv1D/ExpandDims_1", "op": "Const", "attr": {"value": {"tensor": {"dtype": "DT_FLOAT", "tensorShape": {"dim": [{"size": "1"}, {"size": "3"}, {"size": "64"}, {"size": "64"}]}}}, "dtype": {"type": "DT_FLOAT"}}}, {"name": "StatefulPartitionedCall/heavy_chain_align_airr/conv_residual_feature_extraction_block_2/conv1d_and__batch_norm_13/conv1d_42/BiasAdd/ReadVariableOp", "op": "Const", "attr": {"value": {"tensor": {"dtype": "DT_FLOAT", "tensorShape": {"dim": [{"size": "64"}]}}}, "dtype": {"type": "DT_FLOAT"}}}, {"name": "StatefulPartitionedCall/heavy_chain_align_airr/conv_residual_feature_extraction_block_2/conv1d_and__batch_norm_13/conv1d_43/Conv1D/ExpandDims/dim", "op": "Const", "attr": {"value": {"tensor": {"dtype": "DT_INT32", "tensorShape": {}}}, "dtype": {"type": "DT_INT32"}}}, {"name": "StatefulPartitionedCall/heavy_chain_align_airr/conv_residual_feature_extraction_block_2/conv1d_and__batch_norm_13/conv1d_43/Conv1D/ExpandDims_1", "op": "Const", "attr": {"value": {"tensor": {"dtype": "DT_FLOAT", "tensorShape": {"dim": [{"size": "1"}, {"size": "3"}, {"size": "64"}, {"size": "64"}]}}}, "dtype": {"type": "DT_FLOAT"}}}, {"name": "StatefulPartitionedCall/heavy_chain_align_airr/conv_residual_feature_extraction_block_2/conv1d_and__batch_norm_13/conv1d_43/BiasAdd/ReadVariableOp", "op": "Const", "attr": {"value": {"tensor": {"dtype": "DT_FLOAT", "tensorShape": {"dim": [{"size": "64"}]}}}, "dtype": {"type": "DT_FLOAT"}}}, {"name": "StatefulPartitionedCall/heavy_chain_align_airr/conv_residual_feature_extraction_block_2/conv1d_and__batch_norm_13/batch_normalization_13/batchnorm/mul", "op": "Const", "attr": {"value": {"tensor": {"dtype": "DT_FLOAT", "tensorShape": {"dim": [{"size": "64"}]}}}, "dtype": {"type": "DT_FLOAT"}}}, {"name": "StatefulPartitionedCall/heavy_chain_align_airr/conv_residual_feature_extraction_block_2/conv1d_and__batch_norm_13/batch_normalization_13/batchnorm/sub", "op": "Const", "attr": {"value": {"tensor": {"dtype": "DT_FLOAT", "tensorShape": {"dim": [{"size": "64"}]}}}, "dtype": {"type": "DT_FLOAT"}}}, {"name": "StatefulPartitionedCall/heavy_chain_align_airr/conv_residual_feature_extraction_block_2/conv1d_and__batch_norm_13/max_pooling1d_24/ExpandDims/dim", "op": "Const", "attr": {"value": {"tensor": {"dtype": "DT_INT32", "tensorShape": {}}}, "dtype": {"type": "DT_INT32"}}}, {"name": "StatefulPartitionedCall/heavy_chain_align_airr/conv_residual_feature_extraction_block_2/conv1d_and__batch_norm_12/conv1d_38/Conv1D/ExpandDims/dim", "op": "Const", "attr": {"value": {"tensor": {"dtype": "DT_INT32", "tensorShape": {}}}, "dtype": {"type": "DT_INT32"}}}, {"name": "StatefulPartitionedCall/heavy_chain_align_airr/conv_residual_feature_extraction_block_2/conv1d_and__batch_norm_12/conv1d_38/Conv1D/ExpandDims_1", "op": "Const", "attr": {"value": {"tensor": {"dtype": "DT_FLOAT", "tensorShape": {"dim": [{"size": "1"}, {"size": "3"}, {"size": "64"}, {"size": "64"}]}}}, "dtype": {"type": "DT_FLOAT"}}}, {"name": "StatefulPartitionedCall/heavy_chain_align_airr/conv_residual_feature_extraction_block_2/conv1d_and__batch_norm_12/conv1d_38/BiasAdd/ReadVariableOp", "op": "Const", "attr": {"value": {"tensor": {"dtype": "DT_FLOAT", "tensorShape": {"dim": [{"size": "64"}]}}}, "dtype": {"type": "DT_FLOAT"}}}, {"name": "StatefulPartitionedCall/heavy_chain_align_airr/conv_residual_feature_extraction_block_2/conv1d_and__batch_norm_12/conv1d_39/Conv1D/ExpandDims/dim", "op": "Const", "attr": {"value": {"tensor": {"dtype": "DT_INT32", "tensorShape": {}}}, "dtype": {"type": "DT_INT32"}}}, {"name": "StatefulPartitionedCall/heavy_chain_align_airr/conv_residual_feature_extraction_block_2/conv1d_and__batch_norm_12/conv1d_39/Conv1D/ExpandDims_1", "op": "Const", "attr": {"value": {"tensor": {"dtype": "DT_FLOAT", "tensorShape": {"dim": [{"size": "1"}, {"size": "3"}, {"size": "64"}, {"size": "64"}]}}}, "dtype": {"type": "DT_FLOAT"}}}, {"name": "StatefulPartitionedCall/heavy_chain_align_airr/conv_residual_feature_extraction_block_2/conv1d_and__batch_norm_12/conv1d_39/BiasAdd/ReadVariableOp", "op": "Const", "attr": {"value": {"tensor": {"dtype": "DT_FLOAT", "tensorShape": {"dim": [{"size": "64"}]}}}, "dtype": {"type": "DT_FLOAT"}}}, {"name": "StatefulPartitionedCall/heavy_chain_align_airr/conv_residual_feature_extraction_block_2/conv1d_and__batch_norm_12/conv1d_40/Conv1D/ExpandDims/dim", "op": "Const", "attr": {"value": {"tensor": {"dtype": "DT_INT32", "tensorShape": {}}}, "dtype": {"type": "DT_INT32"}}}, {"name": "StatefulPartitionedCall/heavy_chain_align_airr/conv_residual_feature_extraction_block_2/conv1d_and__batch_norm_12/conv1d_40/Conv1D/ExpandDims_1", "op": "Const", "attr": {"value": {"tensor": {"dtype": "DT_FLOAT", "tensorShape": {"dim": [{"size": "1"}, {"size": "3"}, {"size": "64"}, {"size": "64"}]}}}, "dtype": {"type": "DT_FLOAT"}}}, {"name": "StatefulPartitionedCall/heavy_chain_align_airr/conv_residual_feature_extraction_block_2/conv1d_and__batch_norm_12/conv1d_40/BiasAdd/ReadVariableOp", "op": "Const", "attr": {"value": {"tensor": {"dtype": "DT_FLOAT", "tensorShape": {"dim": [{"size": "64"}]}}}, "dtype": {"type": "DT_FLOAT"}}}, {"name": "StatefulPartitionedCall/heavy_chain_align_airr/conv_residual_feature_extraction_block_2/conv1d_and__batch_norm_12/batch_normalization_12/batchnorm/mul", "op": "Const", "attr": {"value": {"tensor": {"dtype": "DT_FLOAT", "tensorShape": {"dim": [{"size": "64"}]}}}, "dtype": {"type": "DT_FLOAT"}}}, {"name": "StatefulPartitionedCall/heavy_chain_align_airr/conv_residual_feature_extraction_block_2/conv1d_and__batch_norm_12/batch_normalization_12/batchnorm/sub", "op": "Const", "attr": {"value": {"tensor": {"dtype": "DT_FLOAT", "tensorShape": {"dim": [{"size": "64"}]}}}, "dtype": {"type": "DT_FLOAT"}}}, {"name": "StatefulPartitionedCall/heavy_chain_align_airr/conv_residual_feature_extraction_block_2/conv1d_and__batch_norm_12/max_pooling1d_23/ExpandDims/dim", "op": "Const", "attr": {"value": {"tensor": {"dtype": "DT_INT32", "tensorShape": {}}}, "dtype": {"type": "DT_INT32"}}}, {"name": "StatefulPartitionedCall/heavy_chain_align_airr/conv_residual_feature_extraction_block_2/conv1d_and__batch_norm_11/conv1d_35/Conv1D/ExpandDims/dim", "op": "Const", "attr": {"value": {"tensor": {"dtype": "DT_INT32", "tensorShape": {}}}, "dtype": {"type": "DT_INT32"}}}, {"name": "StatefulPartitionedCall/heavy_chain_align_airr/conv_residual_feature_extraction_block_2/conv1d_and__batch_norm_11/conv1d_35/Conv1D/ExpandDims_1", "op": "Const", "attr": {"value": {"tensor": {"dtype": "DT_FLOAT", "tensorShape": {"dim": [{"size": "1"}, {"size": "3"}, {"size": "32"}, {"size": "64"}]}}}, "dtype": {"type": "DT_FLOAT"}}}, {"name": "StatefulPartitionedCall/heavy_chain_align_airr/conv_residual_feature_extraction_block_2/conv1d_and__batch_norm_11/conv1d_35/BiasAdd/ReadVariableOp", "op": "Const", "attr": {"value": {"tensor": {"dtype": "DT_FLOAT", "tensorShape": {"dim": [{"size": "64"}]}}}, "dtype": {"type": "DT_FLOAT"}}}, {"name": "StatefulPartitionedCall/heavy_chain_align_airr/conv_residual_feature_extraction_block_2/conv1d_and__batch_norm_11/conv1d_36/Conv1D/ExpandDims/dim", "op": "Const", "attr": {"value": {"tensor": {"dtype": "DT_INT32", "tensorShape": {}}}, "dtype": {"type": "DT_INT32"}}}, {"name": "StatefulPartitionedCall/heavy_chain_align_airr/conv_residual_feature_extraction_block_2/conv1d_and__batch_norm_11/conv1d_36/Conv1D/ExpandDims_1", "op": "Const", "attr": {"value": {"tensor": {"dtype": "DT_FLOAT", "tensorShape": {"dim": [{"size": "1"}, {"size": "3"}, {"size": "64"}, {"size": "64"}]}}}, "dtype": {"type": "DT_FLOAT"}}}, {"name": "StatefulPartitionedCall/heavy_chain_align_airr/conv_residual_feature_extraction_block_2/conv1d_and__batch_norm_11/conv1d_36/BiasAdd/ReadVariableOp", "op": "Const", "attr": {"value": {"tensor": {"dtype": "DT_FLOAT", "tensorShape": {"dim": [{"size": "64"}]}}}, "dtype": {"type": "DT_FLOAT"}}}, {"name": "StatefulPartitionedCall/heavy_chain_align_airr/conv_residual_feature_extraction_block_2/conv1d_and__batch_norm_11/conv1d_37/Conv1D/ExpandDims/dim", "op": "Const", "attr": {"value": {"tensor": {"dtype": "DT_INT32", "tensorShape": {}}}, "dtype": {"type": "DT_INT32"}}}, {"name": "StatefulPartitionedCall/heavy_chain_align_airr/conv_residual_feature_extraction_block_2/conv1d_and__batch_norm_11/conv1d_37/Conv1D/ExpandDims_1", "op": "Const", "attr": {"value": {"tensor": {"dtype": "DT_FLOAT", "tensorShape": {"dim": [{"size": "1"}, {"size": "3"}, {"size": "64"}, {"size": "64"}]}}}, "dtype": {"type": "DT_FLOAT"}}}, {"name": "StatefulPartitionedCall/heavy_chain_align_airr/conv_residual_feature_extraction_block_2/conv1d_and__batch_norm_11/conv1d_37/BiasAdd/ReadVariableOp", "op": "Const", "attr": {"value": {"tensor": {"dtype": "DT_FLOAT", "tensorShape": {"dim": [{"size": "64"}]}}}, "dtype": {"type": "DT_FLOAT"}}}, {"name": "StatefulPartitionedCall/heavy_chain_align_airr/conv_residual_feature_extraction_block_2/conv1d_and__batch_norm_11/batch_normalization_11/batchnorm/mul", "op": "Const", "attr": {"value": {"tensor": {"dtype": "DT_FLOAT", "tensorShape": {"dim": [{"size": "64"}]}}}, "dtype": {"type": "DT_FLOAT"}}}, {"name": "StatefulPartitionedCall/heavy_chain_align_airr/conv_residual_feature_extraction_block_2/conv1d_and__batch_norm_11/batch_normalization_11/batchnorm/sub", "op": "Const", "attr": {"value": {"tensor": {"dtype": "DT_FLOAT", "tensorShape": {"dim": [{"size": "64"}]}}}, "dtype": {"type": "DT_FLOAT"}}}, {"name": "StatefulPartitionedCall/heavy_chain_align_airr/conv_residual_feature_extraction_block_2/conv1d_and__batch_norm_11/max_pooling1d_22/ExpandDims/dim", "op": "Const", "attr": {"value": {"tensor": {"dtype": "DT_INT32", "tensorShape": {}}}, "dtype": {"type": "DT_INT32"}}}, {"name": "StatefulPartitionedCall/heavy_chain_align_airr/reshape_1/strided_slice/stack", "op": "Const", "attr": {"value": {"tensor": {"dtype": "DT_INT32", "tensorShape": {"dim": [{"size": "1"}]}}}, "dtype": {"type": "DT_INT32"}}}, {"name": "StatefulPartitionedCall/heavy_chain_align_airr/reshape_1/strided_slice/stack_1", "op": "Const", "attr": {"value": {"tensor": {"dtype": "DT_INT32", "tensorShape": {"dim": [{"size": "1"}]}}}, "dtype": {"type": "DT_INT32"}}}, {"name": "StatefulPartitionedCall/heavy_chain_align_airr/reshape_1/strided_slice/stack_2", "op": "Const", "attr": {"value": {"tensor": {"dtype": "DT_INT32", "tensorShape": {"dim": [{"size": "1"}]}}}, "dtype": {"type": "DT_INT32"}}}, {"name": "StatefulPartitionedCall/heavy_chain_align_airr/reshape_1/Reshape/shape/1", "op": "Const", "attr": {"value": {"tensor": {"dtype": "DT_INT32", "tensorShape": {}}}, "dtype": {"type": "DT_INT32"}}}, {"name": "StatefulPartitionedCall/heavy_chain_align_airr/reshape_1/Reshape/shape/2", "op": "Const", "attr": {"value": {"tensor": {"dtype": "DT_INT32", "tensorShape": {}}}, "dtype": {"type": "DT_INT32"}}}, {"name": "StatefulPartitionedCall/heavy_chain_align_airr/conv_residual_feature_extraction_block_2/conv1d_47/Conv1D/ExpandDims/dim", "op": "Const", "attr": {"value": {"tensor": {"dtype": "DT_INT32", "tensorShape": {}}}, "dtype": {"type": "DT_INT32"}}}, {"name": "StatefulPartitionedCall/heavy_chain_align_airr/conv_residual_feature_extraction_block_2/conv1d_47/Conv1D/ExpandDims_1", "op": "Const", "attr": {"value": {"tensor": {"dtype": "DT_FLOAT", "tensorShape": {"dim": [{"size": "1"}, {"size": "5"}, {"size": "32"}, {"size": "64"}]}}}, "dtype": {"type": "DT_FLOAT"}}}, {"name": "StatefulPartitionedCall/heavy_chain_align_airr/conv_residual_feature_extraction_block_2/conv1d_47/BiasAdd/ReadVariableOp", "op": "Const", "attr": {"value": {"tensor": {"dtype": "DT_FLOAT", "tensorShape": {"dim": [{"size": "64"}]}}}, "dtype": {"type": "DT_FLOAT"}}}, {"name": "StatefulPartitionedCall/heavy_chain_align_airr/conv_residual_feature_extraction_block_2/max_pooling1d_26/ExpandDims/dim", "op": "Const", "attr": {"value": {"tensor": {"dtype": "DT_INT32", "tensorShape": {}}}, "dtype": {"type": "DT_INT32"}}}, {"name": "StatefulPartitionedCall/heavy_chain_align_airr/conv_residual_feature_extraction_block_2/max_pooling1d_26/ExpandDims_1/dim", "op": "Const", "attr": {"value": {"tensor": {"dtype": "DT_INT32", "tensorShape": {}}}, "dtype": {"type": "DT_INT32"}}}, {"name": "StatefulPartitionedCall/heavy_chain_align_airr/conv_residual_feature_extraction_block_2/max_pooling1d_27/ExpandDims/dim", "op": "Const", "attr": {"value": {"tensor": {"dtype": "DT_INT32", "tensorShape": {}}}, "dtype": {"type": "DT_INT32"}}}, {"name": "StatefulPartitionedCall/heavy_chain_align_airr/conv_residual_feature_extraction_block_2/max_pooling1d_28/ExpandDims/dim", "op": "Const", "attr": {"value": {"tensor": {"dtype": "DT_INT32", "tensorShape": {}}}, "dtype": {"type": "DT_INT32"}}}, {"name": "StatefulPartitionedCall/heavy_chain_align_airr/conv_residual_feature_extraction_block_2/max_pooling1d_29/ExpandDims/dim", "op": "Const", "attr": {"value": {"tensor": {"dtype": "DT_INT32", "tensorShape": {}}}, "dtype": {"type": "DT_INT32"}}}, {"name": "StatefulPartitionedCall/heavy_chain_align_airr/conv_residual_feature_extraction_block_2/flatten_2/Const", "op": "Const", "attr": {"value": {"tensor": {"dtype": "DT_INT32", "tensorShape": {"dim": [{"size": "2"}]}}}, "dtype": {"type": "DT_INT32"}}}, {"name": "StatefulPartitionedCall/heavy_chain_align_airr/d_allele_middle/MatMul/ReadVariableOp", "op": "Const", "attr": {"value": {"tensor": {"dtype": "DT_FLOAT", "tensorShape": {"dim": [{"size": "1024"}, {"size": "68"}]}}}, "dtype": {"type": "DT_FLOAT"}}}, {"name": "StatefulPartitionedCall/heavy_chain_align_airr/d_allele_middle/BiasAdd/ReadVariableOp", "op": "Const", "attr": {"value": {"tensor": {"dtype": "DT_FLOAT", "tensorShape": {"dim": [{"size": "68"}]}}}, "dtype": {"type": "DT_FLOAT"}}}, {"name": "StatefulPartitionedCall/heavy_chain_align_airr/d_allele/MatMul/ReadVariableOp", "op": "Const", "attr": {"value": {"tensor": {"dtype": "DT_FLOAT", "tensorShape": {"dim": [{"size": "68"}, {"size": "34"}]}}}, "dtype": {"type": "DT_FLOAT"}}}, {"name": "StatefulPartitionedCall/heavy_chain_align_airr/d_allele/BiasAdd/ReadVariableOp", "op": "Const", "attr": {"value": {"tensor": {"dtype": "DT_FLOAT", "tensorShape": {"dim": [{"size": "34"}]}}}, "dtype": {"type": "DT_FLOAT"}}}, {"name": "StatefulPartitionedCall/heavy_chain_align_airr/dense_1/MatMul/ReadVariableOp", "op": "Const", "attr": {"value": {"tensor": {"dtype": "DT_FLOAT", "tensorShape": {"dim": [{"size": "512"}, {"size": "32"}]}}}, "dtype": {"type": "DT_FLOAT"}}}, {"name": "StatefulPartitionedCall/heavy_chain_align_airr/dense_1/BiasAdd/ReadVariableOp", "op": "Const", "attr": {"value": {"tensor": {"dtype": "DT_FLOAT", "tensorShape": {"dim": [{"size": "32"}]}}}, "dtype": {"type": "DT_FLOAT"}}}, {"name": "StatefulPartitionedCall/heavy_chain_align_airr/d_segment/MatMul/ReadVariableOp", "op": "Const", "attr": {"value": {"tensor": {"dtype": "DT_FLOAT", "tensorShape": {"dim": [{"size": "32"}, {"size": "512"}]}}}, "dtype": {"type": "DT_FLOAT"}}}, {"name": "StatefulPartitionedCall/heavy_chain_align_airr/d_segment/BiasAdd/ReadVariableOp", "op": "Const", "attr": {"value": {"tensor": {"dtype": "DT_FLOAT", "tensorShape": {"dim": [{"size": "512"}]}}}, "dtype": {"type": "DT_FLOAT"}}}, {"name": "StatefulPartitionedCall/heavy_chain_align_airr/conv_residual_feature_extraction_block_3/conv1d_and__batch_norm_18/conv1d_57/Conv1D/ExpandDims/dim", "op": "Const", "attr": {"value": {"tensor": {"dtype": "DT_INT32", "tensorShape": {}}}, "dtype": {"type": "DT_INT32"}}}, {"name": "StatefulPartitionedCall/heavy_chain_align_airr/conv_residual_feature_extraction_block_3/conv1d_and__batch_norm_18/conv1d_57/Conv1D/ExpandDims_1", "op": "Const", "attr": {"value": {"tensor": {"dtype": "DT_FLOAT", "tensorShape": {"dim": [{"size": "1"}, {"size": "2"}, {"size": "64"}, {"size": "64"}]}}}, "dtype": {"type": "DT_FLOAT"}}}, {"name": "StatefulPartitionedCall/heavy_chain_align_airr/conv_residual_feature_extraction_block_3/conv1d_and__batch_norm_18/conv1d_57/BiasAdd/ReadVariableOp", "op": "Const", "attr": {"value": {"tensor": {"dtype": "DT_FLOAT", "tensorShape": {"dim": [{"size": "64"}]}}}, "dtype": {"type": "DT_FLOAT"}}}, {"name": "StatefulPartitionedCall/heavy_chain_align_airr/conv_residual_feature_extraction_block_3/conv1d_and__batch_norm_18/conv1d_58/Conv1D/ExpandDims/dim", "op": "Const", "attr": {"value": {"tensor": {"dtype": "DT_INT32", "tensorShape": {}}}, "dtype": {"type": "DT_INT32"}}}, {"name": "StatefulPartitionedCall/heavy_chain_align_airr/conv_residual_feature_extraction_block_3/conv1d_and__batch_norm_18/conv1d_58/Conv1D/ExpandDims_1", "op": "Const", "attr": {"value": {"tensor": {"dtype": "DT_FLOAT", "tensorShape": {"dim": [{"size": "1"}, {"size": "2"}, {"size": "64"}, {"size": "64"}]}}}, "dtype": {"type": "DT_FLOAT"}}}, {"name": "StatefulPartitionedCall/heavy_chain_align_airr/conv_residual_feature_extraction_block_3/conv1d_and__batch_norm_18/conv1d_58/BiasAdd/ReadVariableOp", "op": "Const", "attr": {"value": {"tensor": {"dtype": "DT_FLOAT", "tensorShape": {"dim": [{"size": "64"}]}}}, "dtype": {"type": "DT_FLOAT"}}}, {"name": "StatefulPartitionedCall/heavy_chain_align_airr/conv_residual_feature_extraction_block_3/conv1d_and__batch_norm_18/conv1d_59/Conv1D/ExpandDims/dim", "op": "Const", "attr": {"value": {"tensor": {"dtype": "DT_INT32", "tensorShape": {}}}, "dtype": {"type": "DT_INT32"}}}, {"name": "StatefulPartitionedCall/heavy_chain_align_airr/conv_residual_feature_extraction_block_3/conv1d_and__batch_norm_18/conv1d_59/Conv1D/ExpandDims_1", "op": "Const", "attr": {"value": {"tensor": {"dtype": "DT_FLOAT", "tensorShape": {"dim": [{"size": "1"}, {"size": "2"}, {"size": "64"}, {"size": "64"}]}}}, "dtype": {"type": "DT_FLOAT"}}}, {"name": "StatefulPartitionedCall/heavy_chain_align_airr/conv_residual_feature_extraction_block_3/conv1d_and__batch_norm_18/conv1d_59/BiasAdd/ReadVariableOp", "op": "Const", "attr": {"value": {"tensor": {"dtype": "DT_FLOAT", "tensorShape": {"dim": [{"size": "64"}]}}}, "dtype": {"type": "DT_FLOAT"}}}, {"name": "StatefulPartitionedCall/heavy_chain_align_airr/conv_residual_feature_extraction_block_3/conv1d_and__batch_norm_18/batch_normalization_18/batchnorm/mul", "op": "Const", "attr": {"value": {"tensor": {"dtype": "DT_FLOAT", "tensorShape": {"dim": [{"size": "64"}]}}}, "dtype": {"type": "DT_FLOAT"}}}, {"name": "StatefulPartitionedCall/heavy_chain_align_airr/conv_residual_feature_extraction_block_3/conv1d_and__batch_norm_18/batch_normalization_18/batchnorm/sub", "op": "Const", "attr": {"value": {"tensor": {"dtype": "DT_FLOAT", "tensorShape": {"dim": [{"size": "64"}]}}}, "dtype": {"type": "DT_FLOAT"}}}, {"name": "StatefulPartitionedCall/heavy_chain_align_airr/conv_residual_feature_extraction_block_3/conv1d_and__batch_norm_18/max_pooling1d_33/ExpandDims/dim", "op": "Const", "attr": {"value": {"tensor": {"dtype": "DT_INT32", "tensorShape": {}}}, "dtype": {"type": "DT_INT32"}}}, {"name": "StatefulPartitionedCall/heavy_chain_align_airr/conv_residual_feature_extraction_block_3/conv1d_and__batch_norm_17/conv1d_54/Conv1D/ExpandDims/dim", "op": "Const", "attr": {"value": {"tensor": {"dtype": "DT_INT32", "tensorShape": {}}}, "dtype": {"type": "DT_INT32"}}}, {"name": "StatefulPartitionedCall/heavy_chain_align_airr/conv_residual_feature_extraction_block_3/conv1d_and__batch_norm_17/conv1d_54/Conv1D/ExpandDims_1", "op": "Const", "attr": {"value": {"tensor": {"dtype": "DT_FLOAT", "tensorShape": {"dim": [{"size": "1"}, {"size": "3"}, {"size": "64"}, {"size": "64"}]}}}, "dtype": {"type": "DT_FLOAT"}}}, {"name": "StatefulPartitionedCall/heavy_chain_align_airr/conv_residual_feature_extraction_block_3/conv1d_and__batch_norm_17/conv1d_54/BiasAdd/ReadVariableOp", "op": "Const", "attr": {"value": {"tensor": {"dtype": "DT_FLOAT", "tensorShape": {"dim": [{"size": "64"}]}}}, "dtype": {"type": "DT_FLOAT"}}}, {"name": "StatefulPartitionedCall/heavy_chain_align_airr/conv_residual_feature_extraction_block_3/conv1d_and__batch_norm_17/conv1d_55/Conv1D/ExpandDims/dim", "op": "Const", "attr": {"value": {"tensor": {"dtype": "DT_INT32", "tensorShape": {}}}, "dtype": {"type": "DT_INT32"}}}, {"name": "StatefulPartitionedCall/heavy_chain_align_airr/conv_residual_feature_extraction_block_3/conv1d_and__batch_norm_17/conv1d_55/Conv1D/ExpandDims_1", "op": "Const", "attr": {"value": {"tensor": {"dtype": "DT_FLOAT", "tensorShape": {"dim": [{"size": "1"}, {"size": "3"}, {"size": "64"}, {"size": "64"}]}}}, "dtype": {"type": "DT_FLOAT"}}}, {"name": "StatefulPartitionedCall/heavy_chain_align_airr/conv_residual_feature_extraction_block_3/conv1d_and__batch_norm_17/conv1d_55/BiasAdd/ReadVariableOp", "op": "Const", "attr": {"value": {"tensor": {"dtype": "DT_FLOAT", "tensorShape": {"dim": [{"size": "64"}]}}}, "dtype": {"type": "DT_FLOAT"}}}, {"name": "StatefulPartitionedCall/heavy_chain_align_airr/conv_residual_feature_extraction_block_3/conv1d_and__batch_norm_17/conv1d_56/Conv1D/ExpandDims/dim", "op": "Const", "attr": {"value": {"tensor": {"dtype": "DT_INT32", "tensorShape": {}}}, "dtype": {"type": "DT_INT32"}}}, {"name": "StatefulPartitionedCall/heavy_chain_align_airr/conv_residual_feature_extraction_block_3/conv1d_and__batch_norm_17/conv1d_56/Conv1D/ExpandDims_1", "op": "Const", "attr": {"value": {"tensor": {"dtype": "DT_FLOAT", "tensorShape": {"dim": [{"size": "1"}, {"size": "3"}, {"size": "64"}, {"size": "64"}]}}}, "dtype": {"type": "DT_FLOAT"}}}, {"name": "StatefulPartitionedCall/heavy_chain_align_airr/conv_residual_feature_extraction_block_3/conv1d_and__batch_norm_17/conv1d_56/BiasAdd/ReadVariableOp", "op": "Const", "attr": {"value": {"tensor": {"dtype": "DT_FLOAT", "tensorShape": {"dim": [{"size": "64"}]}}}, "dtype": {"type": "DT_FLOAT"}}}, {"name": "StatefulPartitionedCall/heavy_chain_align_airr/conv_residual_feature_extraction_block_3/conv1d_and__batch_norm_17/batch_normalization_17/batchnorm/mul", "op": "Const", "attr": {"value": {"tensor": {"dtype": "DT_FLOAT", "tensorShape": {"dim": [{"size": "64"}]}}}, "dtype": {"type": "DT_FLOAT"}}}, {"name": "StatefulPartitionedCall/heavy_chain_align_airr/conv_residual_feature_extraction_block_3/conv1d_and__batch_norm_17/batch_normalization_17/batchnorm/sub", "op": "Const", "attr": {"value": {"tensor": {"dtype": "DT_FLOAT", "tensorShape": {"dim": [{"size": "64"}]}}}, "dtype": {"type": "DT_FLOAT"}}}, {"name": "StatefulPartitionedCall/heavy_chain_align_airr/conv_residual_feature_extraction_block_3/conv1d_and__batch_norm_17/max_pooling1d_32/ExpandDims/dim", "op": "Const", "attr": {"value": {"tensor": {"dtype": "DT_INT32", "tensorShape": {}}}, "dtype": {"type": "DT_INT32"}}}, {"name": "StatefulPartitionedCall/heavy_chain_align_airr/conv_residual_feature_extraction_block_3/conv1d_and__batch_norm_16/conv1d_51/Conv1D/ExpandDims/dim", "op": "Const", "attr": {"value": {"tensor": {"dtype": "DT_INT32", "tensorShape": {}}}, "dtype": {"type": "DT_INT32"}}}, {"name": "StatefulPartitionedCall/heavy_chain_align_airr/conv_residual_feature_extraction_block_3/conv1d_and__batch_norm_16/conv1d_51/Conv1D/ExpandDims_1", "op": "Const", "attr": {"value": {"tensor": {"dtype": "DT_FLOAT", "tensorShape": {"dim": [{"size": "1"}, {"size": "3"}, {"size": "64"}, {"size": "64"}]}}}, "dtype": {"type": "DT_FLOAT"}}}, {"name": "StatefulPartitionedCall/heavy_chain_align_airr/conv_residual_feature_extraction_block_3/conv1d_and__batch_norm_16/conv1d_51/BiasAdd/ReadVariableOp", "op": "Const", "attr": {"value": {"tensor": {"dtype": "DT_FLOAT", "tensorShape": {"dim": [{"size": "64"}]}}}, "dtype": {"type": "DT_FLOAT"}}}, {"name": "StatefulPartitionedCall/heavy_chain_align_airr/conv_residual_feature_extraction_block_3/conv1d_and__batch_norm_16/conv1d_52/Conv1D/ExpandDims/dim", "op": "Const", "attr": {"value": {"tensor": {"dtype": "DT_INT32", "tensorShape": {}}}, "dtype": {"type": "DT_INT32"}}}, {"name": "StatefulPartitionedCall/heavy_chain_align_airr/conv_residual_feature_extraction_block_3/conv1d_and__batch_norm_16/conv1d_52/Conv1D/ExpandDims_1", "op": "Const", "attr": {"value": {"tensor": {"dtype": "DT_FLOAT", "tensorShape": {"dim": [{"size": "1"}, {"size": "3"}, {"size": "64"}, {"size": "64"}]}}}, "dtype": {"type": "DT_FLOAT"}}}, {"name": "StatefulPartitionedCall/heavy_chain_align_airr/conv_residual_feature_extraction_block_3/conv1d_and__batch_norm_16/conv1d_52/BiasAdd/ReadVariableOp", "op": "Const", "attr": {"value": {"tensor": {"dtype": "DT_FLOAT", "tensorShape": {"dim": [{"size": "64"}]}}}, "dtype": {"type": "DT_FLOAT"}}}, {"name": "StatefulPartitionedCall/heavy_chain_align_airr/conv_residual_feature_extraction_block_3/conv1d_and__batch_norm_16/conv1d_53/Conv1D/ExpandDims/dim", "op": "Const", "attr": {"value": {"tensor": {"dtype": "DT_INT32", "tensorShape": {}}}, "dtype": {"type": "DT_INT32"}}}, {"name": "StatefulPartitionedCall/heavy_chain_align_airr/conv_residual_feature_extraction_block_3/conv1d_and__batch_norm_16/conv1d_53/Conv1D/ExpandDims_1", "op": "Const", "attr": {"value": {"tensor": {"dtype": "DT_FLOAT", "tensorShape": {"dim": [{"size": "1"}, {"size": "3"}, {"size": "64"}, {"size": "64"}]}}}, "dtype": {"type": "DT_FLOAT"}}}, {"name": "StatefulPartitionedCall/heavy_chain_align_airr/conv_residual_feature_extraction_block_3/conv1d_and__batch_norm_16/conv1d_53/BiasAdd/ReadVariableOp", "op": "Const", "attr": {"value": {"tensor": {"dtype": "DT_FLOAT", "tensorShape": {"dim": [{"size": "64"}]}}}, "dtype": {"type": "DT_FLOAT"}}}, {"name": "StatefulPartitionedCall/heavy_chain_align_airr/conv_residual_feature_extraction_block_3/conv1d_and__batch_norm_16/batch_normalization_16/batchnorm/mul", "op": "Const", "attr": {"value": {"tensor": {"dtype": "DT_FLOAT", "tensorShape": {"dim": [{"size": "64"}]}}}, "dtype": {"type": "DT_FLOAT"}}}, {"name": "StatefulPartitionedCall/heavy_chain_align_airr/conv_residual_feature_extraction_block_3/conv1d_and__batch_norm_16/batch_normalization_16/batchnorm/sub", "op": "Const", "attr": {"value": {"tensor": {"dtype": "DT_FLOAT", "tensorShape": {"dim": [{"size": "64"}]}}}, "dtype": {"type": "DT_FLOAT"}}}, {"name": "StatefulPartitionedCall/heavy_chain_align_airr/conv_residual_feature_extraction_block_3/conv1d_and__batch_norm_16/max_pooling1d_31/ExpandDims/dim", "op": "Const", "attr": {"value": {"tensor": {"dtype": "DT_INT32", "tensorShape": {}}}, "dtype": {"type": "DT_INT32"}}}, {"name": "StatefulPartitionedCall/heavy_chain_align_airr/conv_residual_feature_extraction_block_3/conv1d_and__batch_norm_15/conv1d_48/Conv1D/ExpandDims/dim", "op": "Const", "attr": {"value": {"tensor": {"dtype": "DT_INT32", "tensorShape": {}}}, "dtype": {"type": "DT_INT32"}}}, {"name": "StatefulPartitionedCall/heavy_chain_align_airr/conv_residual_feature_extraction_block_3/conv1d_and__batch_norm_15/conv1d_48/Conv1D/ExpandDims_1", "op": "Const", "attr": {"value": {"tensor": {"dtype": "DT_FLOAT", "tensorShape": {"dim": [{"size": "1"}, {"size": "3"}, {"size": "32"}, {"size": "64"}]}}}, "dtype": {"type": "DT_FLOAT"}}}, {"name": "StatefulPartitionedCall/heavy_chain_align_airr/conv_residual_feature_extraction_block_3/conv1d_and__batch_norm_15/conv1d_48/BiasAdd/ReadVariableOp", "op": "Const", "attr": {"value": {"tensor": {"dtype": "DT_FLOAT", "tensorShape": {"dim": [{"size": "64"}]}}}, "dtype": {"type": "DT_FLOAT"}}}, {"name": "StatefulPartitionedCall/heavy_chain_align_airr/conv_residual_feature_extraction_block_3/conv1d_and__batch_norm_15/conv1d_49/Conv1D/ExpandDims/dim", "op": "Const", "attr": {"value": {"tensor": {"dtype": "DT_INT32", "tensorShape": {}}}, "dtype": {"type": "DT_INT32"}}}, {"name": "StatefulPartitionedCall/heavy_chain_align_airr/conv_residual_feature_extraction_block_3/conv1d_and__batch_norm_15/conv1d_49/Conv1D/ExpandDims_1", "op": "Const", "attr": {"value": {"tensor": {"dtype": "DT_FLOAT", "tensorShape": {"dim": [{"size": "1"}, {"size": "3"}, {"size": "64"}, {"size": "64"}]}}}, "dtype": {"type": "DT_FLOAT"}}}, {"name": "StatefulPartitionedCall/heavy_chain_align_airr/conv_residual_feature_extraction_block_3/conv1d_and__batch_norm_15/conv1d_49/BiasAdd/ReadVariableOp", "op": "Const", "attr": {"value": {"tensor": {"dtype": "DT_FLOAT", "tensorShape": {"dim": [{"size": "64"}]}}}, "dtype": {"type": "DT_FLOAT"}}}, {"name": "StatefulPartitionedCall/heavy_chain_align_airr/conv_residual_feature_extraction_block_3/conv1d_and__batch_norm_15/conv1d_50/Conv1D/ExpandDims/dim", "op": "Const", "attr": {"value": {"tensor": {"dtype": "DT_INT32", "tensorShape": {}}}, "dtype": {"type": "DT_INT32"}}}, {"name": "StatefulPartitionedCall/heavy_chain_align_airr/conv_residual_feature_extraction_block_3/conv1d_and__batch_norm_15/conv1d_50/Conv1D/ExpandDims_1", "op": "Const", "attr": {"value": {"tensor": {"dtype": "DT_FLOAT", "tensorShape": {"dim": [{"size": "1"}, {"size": "3"}, {"size": "64"}, {"size": "64"}]}}}, "dtype": {"type": "DT_FLOAT"}}}, {"name": "StatefulPartitionedCall/heavy_chain_align_airr/conv_residual_feature_extraction_block_3/conv1d_and__batch_norm_15/conv1d_50/BiasAdd/ReadVariableOp", "op": "Const", "attr": {"value": {"tensor": {"dtype": "DT_FLOAT", "tensorShape": {"dim": [{"size": "64"}]}}}, "dtype": {"type": "DT_FLOAT"}}}, {"name": "StatefulPartitionedCall/heavy_chain_align_airr/conv_residual_feature_extraction_block_3/conv1d_and__batch_norm_15/batch_normalization_15/batchnorm/mul", "op": "Const", "attr": {"value": {"tensor": {"dtype": "DT_FLOAT", "tensorShape": {"dim": [{"size": "64"}]}}}, "dtype": {"type": "DT_FLOAT"}}}, {"name": "StatefulPartitionedCall/heavy_chain_align_airr/conv_residual_feature_extraction_block_3/conv1d_and__batch_norm_15/batch_normalization_15/batchnorm/sub", "op": "Const", "attr": {"value": {"tensor": {"dtype": "DT_FLOAT", "tensorShape": {"dim": [{"size": "64"}]}}}, "dtype": {"type": "DT_FLOAT"}}}, {"name": "StatefulPartitionedCall/heavy_chain_align_airr/conv_residual_feature_extraction_block_3/conv1d_and__batch_norm_15/max_pooling1d_30/ExpandDims/dim", "op": "Const", "attr": {"value": {"tensor": {"dtype": "DT_INT32", "tensorShape": {}}}, "dtype": {"type": "DT_INT32"}}}, {"name": "StatefulPartitionedCall/heavy_chain_align_airr/reshape_2/strided_slice/stack", "op": "Const", "attr": {"value": {"tensor": {"dtype": "DT_INT32", "tensorShape": {"dim": [{"size": "1"}]}}}, "dtype": {"type": "DT_INT32"}}}, {"name": "StatefulPartitionedCall/heavy_chain_align_airr/reshape_2/strided_slice/stack_1", "op": "Const", "attr": {"value": {"tensor": {"dtype": "DT_INT32", "tensorShape": {"dim": [{"size": "1"}]}}}, "dtype": {"type": "DT_INT32"}}}, {"name": "StatefulPartitionedCall/heavy_chain_align_airr/reshape_2/strided_slice/stack_2", "op": "Const", "attr": {"value": {"tensor": {"dtype": "DT_INT32", "tensorShape": {"dim": [{"size": "1"}]}}}, "dtype": {"type": "DT_INT32"}}}, {"name": "StatefulPartitionedCall/heavy_chain_align_airr/reshape_2/Reshape/shape/1", "op": "Const", "attr": {"value": {"tensor": {"dtype": "DT_INT32", "tensorShape": {}}}, "dtype": {"type": "DT_INT32"}}}, {"name": "StatefulPartitionedCall/heavy_chain_align_airr/reshape_2/Reshape/shape/2", "op": "Const", "attr": {"value": {"tensor": {"dtype": "DT_INT32", "tensorShape": {}}}, "dtype": {"type": "DT_INT32"}}}, {"name": "StatefulPartitionedCall/heavy_chain_align_airr/conv_residual_feature_extraction_block_3/conv1d_60/Conv1D/ExpandDims/dim", "op": "Const", "attr": {"value": {"tensor": {"dtype": "DT_INT32", "tensorShape": {}}}, "dtype": {"type": "DT_INT32"}}}, {"name": "StatefulPartitionedCall/heavy_chain_align_airr/conv_residual_feature_extraction_block_3/conv1d_60/Conv1D/ExpandDims_1", "op": "Const", "attr": {"value": {"tensor": {"dtype": "DT_FLOAT", "tensorShape": {"dim": [{"size": "1"}, {"size": "5"}, {"size": "32"}, {"size": "64"}]}}}, "dtype": {"type": "DT_FLOAT"}}}, {"name": "StatefulPartitionedCall/heavy_chain_align_airr/conv_residual_feature_extraction_block_3/conv1d_60/BiasAdd/ReadVariableOp", "op": "Const", "attr": {"value": {"tensor": {"dtype": "DT_FLOAT", "tensorShape": {"dim": [{"size": "64"}]}}}, "dtype": {"type": "DT_FLOAT"}}}, {"name": "StatefulPartitionedCall/heavy_chain_align_airr/conv_residual_feature_extraction_block_3/max_pooling1d_34/ExpandDims/dim", "op": "Const", "attr": {"value": {"tensor": {"dtype": "DT_INT32", "tensorShape": {}}}, "dtype": {"type": "DT_INT32"}}}, {"name": "StatefulPartitionedCall/heavy_chain_align_airr/conv_residual_feature_extraction_block_3/max_pooling1d_34/ExpandDims_1/dim", "op": "Const", "attr": {"value": {"tensor": {"dtype": "DT_INT32", "tensorShape": {}}}, "dtype": {"type": "DT_INT32"}}}, {"name": "StatefulPartitionedCall/heavy_chain_align_airr/conv_residual_feature_extraction_block_3/max_pooling1d_35/ExpandDims/dim", "op": "Const", "attr": {"value": {"tensor": {"dtype": "DT_INT32", "tensorShape": {}}}, "dtype": {"type": "DT_INT32"}}}, {"name": "StatefulPartitionedCall/heavy_chain_align_airr/conv_residual_feature_extraction_block_3/max_pooling1d_36/ExpandDims/dim", "op": "Const", "attr": {"value": {"tensor": {"dtype": "DT_INT32", "tensorShape": {}}}, "dtype": {"type": "DT_INT32"}}}, {"name": "StatefulPartitionedCall/heavy_chain_align_airr/conv_residual_feature_extraction_block_3/max_pooling1d_37/ExpandDims/dim", "op": "Const", "attr": {"value": {"tensor": {"dtype": "DT_INT32", "tensorShape": {}}}, "dtype": {"type": "DT_INT32"}}}, {"name": "StatefulPartitionedCall/heavy_chain_align_airr/conv_residual_feature_extraction_block_3/flatten_3/Const", "op": "Const", "attr": {"value": {"tensor": {"dtype": "DT_INT32", "tensorShape": {"dim": [{"size": "2"}]}}}, "dtype": {"type": "DT_INT32"}}}, {"name": "StatefulPartitionedCall/heavy_chain_align_airr/j_allele_middle/MatMul/ReadVariableOp", "op": "Const", "attr": {"value": {"tensor": {"dtype": "DT_FLOAT", "tensorShape": {"dim": [{"size": "1024"}, {"size": "14"}]}}}, "dtype": {"type": "DT_FLOAT"}}}, {"name": "StatefulPartitionedCall/heavy_chain_align_airr/j_allele_middle/BiasAdd/ReadVariableOp", "op": "Const", "attr": {"value": {"tensor": {"dtype": "DT_FLOAT", "tensorShape": {"dim": [{"size": "14"}]}}}, "dtype": {"type": "DT_FLOAT"}}}, {"name": "StatefulPartitionedCall/heavy_chain_align_airr/j_allele/MatMul/ReadVariableOp", "op": "Const", "attr": {"value": {"tensor": {"dtype": "DT_FLOAT", "tensorShape": {"dim": [{"size": "14"}, {"size": "7"}]}}}, "dtype": {"type": "DT_FLOAT"}}}, {"name": "StatefulPartitionedCall/heavy_chain_align_airr/j_allele/BiasAdd/ReadVariableOp", "op": "Const", "attr": {"value": {"tensor": {"dtype": "DT_FLOAT", "tensorShape": {"dim": [{"size": "7"}]}}}, "dtype": {"type": "DT_FLOAT"}}}, {"name": "StatefulPartitionedCall/heavy_chain_align_airr/dense_2/MatMul/ReadVariableOp", "op": "Const", "attr": {"value": {"tensor": {"dtype": "DT_FLOAT", "tensorShape": {"dim": [{"size": "512"}, {"size": "32"}]}}}, "dtype": {"type": "DT_FLOAT"}}}, {"name": "StatefulPartitionedCall/heavy_chain_align_airr/dense_2/BiasAdd/ReadVariableOp", "op": "Const", "attr": {"value": {"tensor": {"dtype": "DT_FLOAT", "tensorShape": {"dim": [{"size": "32"}]}}}, "dtype": {"type": "DT_FLOAT"}}}, {"name": "StatefulPartitionedCall/heavy_chain_align_airr/j_segment/MatMul/ReadVariableOp", "op": "Const", "attr": {"value": {"tensor": {"dtype": "DT_FLOAT", "tensorShape": {"dim": [{"size": "32"}, {"size": "512"}]}}}, "dtype": {"type": "DT_FLOAT"}}}, {"name": "StatefulPartitionedCall/heavy_chain_align_airr/j_segment/BiasAdd/ReadVariableOp", "op": "Const", "attr": {"value": {"tensor": {"dtype": "DT_FLOAT", "tensorShape": {"dim": [{"size": "512"}]}}}, "dtype": {"type": "DT_FLOAT"}}}, {"name": "StatefulPartitionedCall/heavy_chain_align_airr/mutation_rate_mid/MatMul/ReadVariableOp", "op": "Const", "attr": {"value": {"tensor": {"dtype": "DT_FLOAT", "tensorShape": {"dim": [{"size": "512"}, {"size": "256"}]}}}, "dtype": {"type": "DT_FLOAT"}}}, {"name": "StatefulPartitionedCall/heavy_chain_align_airr/mutation_rate_mid/BiasAdd/ReadVariableOp", "op": "Const", "attr": {"value": {"tensor": {"dtype": "DT_FLOAT", "tensorShape": {"dim": [{"size": "256"}]}}}, "dtype": {"type": "DT_FLOAT"}}}, {"name": "StatefulPartitionedCall/heavy_chain_align_airr/mutation_rate/MatMul/ReadVariableOp", "op": "Const", "attr": {"value": {"tensor": {"dtype": "DT_FLOAT", "tensorShape": {"dim": [{"size": "256"}, {"size": "1"}]}}}, "dtype": {"type": "DT_FLOAT"}}}, {"name": "StatefulPartitionedCall/heavy_chain_align_airr/mutation_rate/BiasAdd/ReadVariableOp", "op": "Const", "attr": {"value": {"tensor": {"dtype": "DT_FLOAT", "tensorShape": {"dim": [{"size": "1"}]}}}, "dtype": {"type": "DT_FLOAT"}}}, {"name": "StatefulPartitionedCall/heavy_chain_align_airr/conv_residual_feature_extraction_block_1/conv1d_and__batch_norm_10/conv1d_31/Conv1D/ExpandDims/dim", "op": "Const", "attr": {"value": {"tensor": {"dtype": "DT_INT32", "tensorShape": {}}}, "dtype": {"type": "DT_INT32"}}}, {"name": "StatefulPartitionedCall/heavy_chain_align_airr/conv_residual_feature_extraction_block_1/conv1d_and__batch_norm_10/conv1d_31/Conv1D/ExpandDims_1", "op": "Const", "attr": {"value": {"tensor": {"dtype": "DT_FLOAT", "tensorShape": {"dim": [{"size": "1"}, {"size": "2"}, {"size": "128"}, {"size": "128"}]}}}, "dtype": {"type": "DT_FLOAT"}}}, {"name": "StatefulPartitionedCall/heavy_chain_align_airr/conv_residual_feature_extraction_block_1/conv1d_and__batch_norm_10/conv1d_31/BiasAdd/ReadVariableOp", "op": "Const", "attr": {"value": {"tensor": {"dtype": "DT_FLOAT", "tensorShape": {"dim": [{"size": "128"}]}}}, "dtype": {"type": "DT_FLOAT"}}}, {"name": "StatefulPartitionedCall/heavy_chain_align_airr/conv_residual_feature_extraction_block_1/conv1d_and__batch_norm_10/conv1d_32/Conv1D/ExpandDims/dim", "op": "Const", "attr": {"value": {"tensor": {"dtype": "DT_INT32", "tensorShape": {}}}, "dtype": {"type": "DT_INT32"}}}, {"name": "StatefulPartitionedCall/heavy_chain_align_airr/conv_residual_feature_extraction_block_1/conv1d_and__batch_norm_10/conv1d_32/Conv1D/ExpandDims_1", "op": "Const", "attr": {"value": {"tensor": {"dtype": "DT_FLOAT", "tensorShape": {"dim": [{"size": "1"}, {"size": "2"}, {"size": "128"}, {"size": "128"}]}}}, "dtype": {"type": "DT_FLOAT"}}}, {"name": "StatefulPartitionedCall/heavy_chain_align_airr/conv_residual_feature_extraction_block_1/conv1d_and__batch_norm_10/conv1d_32/BiasAdd/ReadVariableOp", "op": "Const", "attr": {"value": {"tensor": {"dtype": "DT_FLOAT", "tensorShape": {"dim": [{"size": "128"}]}}}, "dtype": {"type": "DT_FLOAT"}}}, {"name": "StatefulPartitionedCall/heavy_chain_align_airr/conv_residual_feature_extraction_block_1/conv1d_and__batch_norm_10/conv1d_33/Conv1D/ExpandDims/dim", "op": "Const", "attr": {"value": {"tensor": {"dtype": "DT_INT32", "tensorShape": {}}}, "dtype": {"type": "DT_INT32"}}}, {"name": "StatefulPartitionedCall/heavy_chain_align_airr/conv_residual_feature_extraction_block_1/conv1d_and__batch_norm_10/conv1d_33/Conv1D/ExpandDims_1", "op": "Const", "attr": {"value": {"tensor": {"dtype": "DT_FLOAT", "tensorShape": {"dim": [{"size": "1"}, {"size": "2"}, {"size": "128"}, {"size": "128"}]}}}, "dtype": {"type": "DT_FLOAT"}}}, {"name": "StatefulPartitionedCall/heavy_chain_align_airr/conv_residual_feature_extraction_block_1/conv1d_and__batch_norm_10/conv1d_33/BiasAdd/ReadVariableOp", "op": "Const", "attr": {"value": {"tensor": {"dtype": "DT_FLOAT", "tensorShape": {"dim": [{"size": "128"}]}}}, "dtype": {"type": "DT_FLOAT"}}}, {"name": "StatefulPartitionedCall/heavy_chain_align_airr/conv_residual_feature_extraction_block_1/conv1d_and__batch_norm_10/batch_normalization_10/batchnorm/mul", "op": "Const", "attr": {"value": {"tensor": {"dtype": "DT_FLOAT", "tensorShape": {"dim": [{"size": "128"}]}}}, "dtype": {"type": "DT_FLOAT"}}}, {"name": "StatefulPartitionedCall/heavy_chain_align_airr/conv_residual_feature_extraction_block_1/conv1d_and__batch_norm_10/batch_normalization_10/batchnorm/sub", "op": "Const", "attr": {"value": {"tensor": {"dtype": "DT_FLOAT", "tensorShape": {"dim": [{"size": "128"}]}}}, "dtype": {"type": "DT_FLOAT"}}}, {"name": "StatefulPartitionedCall/heavy_chain_align_airr/conv_residual_feature_extraction_block_1/conv1d_and__batch_norm_10/max_pooling1d_15/ExpandDims/dim", "op": "Const", "attr": {"value": {"tensor": {"dtype": "DT_INT32", "tensorShape": {}}}, "dtype": {"type": "DT_INT32"}}}, {"name": "StatefulPartitionedCall/heavy_chain_align_airr/conv_residual_feature_extraction_block_1/conv1d_and__batch_norm_9/conv1d_28/Conv1D/ExpandDims/dim", "op": "Const", "attr": {"value": {"tensor": {"dtype": "DT_INT32", "tensorShape": {}}}, "dtype": {"type": "DT_INT32"}}}, {"name": "StatefulPartitionedCall/heavy_chain_align_airr/conv_residual_feature_extraction_block_1/conv1d_and__batch_norm_9/conv1d_28/Conv1D/ExpandDims_1", "op": "Const", "attr": {"value": {"tensor": {"dtype": "DT_FLOAT", "tensorShape": {"dim": [{"size": "1"}, {"size": "2"}, {"size": "128"}, {"size": "128"}]}}}, "dtype": {"type": "DT_FLOAT"}}}, {"name": "StatefulPartitionedCall/heavy_chain_align_airr/conv_residual_feature_extraction_block_1/conv1d_and__batch_norm_9/conv1d_28/BiasAdd/ReadVariableOp", "op": "Const", "attr": {"value": {"tensor": {"dtype": "DT_FLOAT", "tensorShape": {"dim": [{"size": "128"}]}}}, "dtype": {"type": "DT_FLOAT"}}}, {"name": "StatefulPartitionedCall/heavy_chain_align_airr/conv_residual_feature_extraction_block_1/conv1d_and__batch_norm_9/conv1d_29/Conv1D/ExpandDims/dim", "op": "Const", "attr": {"value": {"tensor": {"dtype": "DT_INT32", "tensorShape": {}}}, "dtype": {"type": "DT_INT32"}}}, {"name": "StatefulPartitionedCall/heavy_chain_align_airr/conv_residual_feature_extraction_block_1/conv1d_and__batch_norm_9/conv1d_29/Conv1D/ExpandDims_1", "op": "Const", "attr": {"value": {"tensor": {"dtype": "DT_FLOAT", "tensorShape": {"dim": [{"size": "1"}, {"size": "2"}, {"size": "128"}, {"size": "128"}]}}}, "dtype": {"type": "DT_FLOAT"}}}, {"name": "StatefulPartitionedCall/heavy_chain_align_airr/conv_residual_feature_extraction_block_1/conv1d_and__batch_norm_9/conv1d_29/BiasAdd/ReadVariableOp", "op": "Const", "attr": {"value": {"tensor": {"dtype": "DT_FLOAT", "tensorShape": {"dim": [{"size": "128"}]}}}, "dtype": {"type": "DT_FLOAT"}}}, {"name": "StatefulPartitionedCall/heavy_chain_align_airr/conv_residual_feature_extraction_block_1/conv1d_and__batch_norm_9/conv1d_30/Conv1D/ExpandDims/dim", "op": "Const", "attr": {"value": {"tensor": {"dtype": "DT_INT32", "tensorShape": {}}}, "dtype": {"type": "DT_INT32"}}}, {"name": "StatefulPartitionedCall/heavy_chain_align_airr/conv_residual_feature_extraction_block_1/conv1d_and__batch_norm_9/conv1d_30/Conv1D/ExpandDims_1", "op": "Const", "attr": {"value": {"tensor": {"dtype": "DT_FLOAT", "tensorShape": {"dim": [{"size": "1"}, {"size": "2"}, {"size": "128"}, {"size": "128"}]}}}, "dtype": {"type": "DT_FLOAT"}}}, {"name": "StatefulPartitionedCall/heavy_chain_align_airr/conv_residual_feature_extraction_block_1/conv1d_and__batch_norm_9/conv1d_30/BiasAdd/ReadVariableOp", "op": "Const", "attr": {"value": {"tensor": {"dtype": "DT_FLOAT", "tensorShape": {"dim": [{"size": "128"}]}}}, "dtype": {"type": "DT_FLOAT"}}}, {"name": "StatefulPartitionedCall/heavy_chain_align_airr/conv_residual_feature_extraction_block_1/conv1d_and__batch_norm_9/batch_normalization_9/batchnorm/mul", "op": "Const", "attr": {"value": {"tensor": {"dtype": "DT_FLOAT", "tensorShape": {"dim": [{"size": "128"}]}}}, "dtype": {"type": "DT_FLOAT"}}}, {"name": "StatefulPartitionedCall/heavy_chain_align_airr/conv_residual_feature_extraction_block_1/conv1d_and__batch_norm_9/batch_normalization_9/batchnorm/sub", "op": "Const", "attr": {"value": {"tensor": {"dtype": "DT_FLOAT", "tensorShape": {"dim": [{"size": "128"}]}}}, "dtype": {"type": "DT_FLOAT"}}}, {"name": "StatefulPartitionedCall/heavy_chain_align_airr/conv_residual_feature_extraction_block_1/conv1d_and__batch_norm_9/max_pooling1d_14/ExpandDims/dim", "op": "Const", "attr": {"value": {"tensor": {"dtype": "DT_INT32", "tensorShape": {}}}, "dtype": {"type": "DT_INT32"}}}, {"name": "StatefulPartitionedCall/heavy_chain_align_airr/conv_residual_feature_extraction_block_1/conv1d_and__batch_norm_8/conv1d_25/Conv1D/ExpandDims/dim", "op": "Const", "attr": {"value": {"tensor": {"dtype": "DT_INT32", "tensorShape": {}}}, "dtype": {"type": "DT_INT32"}}}, {"name": "StatefulPartitionedCall/heavy_chain_align_airr/conv_residual_feature_extraction_block_1/conv1d_and__batch_norm_8/conv1d_25/Conv1D/ExpandDims_1", "op": "Const", "attr": {"value": {"tensor": {"dtype": "DT_FLOAT", "tensorShape": {"dim": [{"size": "1"}, {"size": "2"}, {"size": "128"}, {"size": "128"}]}}}, "dtype": {"type": "DT_FLOAT"}}}, {"name": "StatefulPartitionedCall/heavy_chain_align_airr/conv_residual_feature_extraction_block_1/conv1d_and__batch_norm_8/conv1d_25/BiasAdd/ReadVariableOp", "op": "Const", "attr": {"value": {"tensor": {"dtype": "DT_FLOAT", "tensorShape": {"dim": [{"size": "128"}]}}}, "dtype": {"type": "DT_FLOAT"}}}, {"name": "StatefulPartitionedCall/heavy_chain_align_airr/conv_residual_feature_extraction_block_1/conv1d_and__batch_norm_8/conv1d_26/Conv1D/ExpandDims/dim", "op": "Const", "attr": {"value": {"tensor": {"dtype": "DT_INT32", "tensorShape": {}}}, "dtype": {"type": "DT_INT32"}}}, {"name": "StatefulPartitionedCall/heavy_chain_align_airr/conv_residual_feature_extraction_block_1/conv1d_and__batch_norm_8/conv1d_26/Conv1D/ExpandDims_1", "op": "Const", "attr": {"value": {"tensor": {"dtype": "DT_FLOAT", "tensorShape": {"dim": [{"size": "1"}, {"size": "2"}, {"size": "128"}, {"size": "128"}]}}}, "dtype": {"type": "DT_FLOAT"}}}, {"name": "StatefulPartitionedCall/heavy_chain_align_airr/conv_residual_feature_extraction_block_1/conv1d_and__batch_norm_8/conv1d_26/BiasAdd/ReadVariableOp", "op": "Const", "attr": {"value": {"tensor": {"dtype": "DT_FLOAT", "tensorShape": {"dim": [{"size": "128"}]}}}, "dtype": {"type": "DT_FLOAT"}}}, {"name": "StatefulPartitionedCall/heavy_chain_align_airr/conv_residual_feature_extraction_block_1/conv1d_and__batch_norm_8/conv1d_27/Conv1D/ExpandDims/dim", "op": "Const", "attr": {"value": {"tensor": {"dtype": "DT_INT32", "tensorShape": {}}}, "dtype": {"type": "DT_INT32"}}}, {"name": "StatefulPartitionedCall/heavy_chain_align_airr/conv_residual_feature_extraction_block_1/conv1d_and__batch_norm_8/conv1d_27/Conv1D/ExpandDims_1", "op": "Const", "attr": {"value": {"tensor": {"dtype": "DT_FLOAT", "tensorShape": {"dim": [{"size": "1"}, {"size": "2"}, {"size": "128"}, {"size": "128"}]}}}, "dtype": {"type": "DT_FLOAT"}}}, {"name": "StatefulPartitionedCall/heavy_chain_align_airr/conv_residual_feature_extraction_block_1/conv1d_and__batch_norm_8/conv1d_27/BiasAdd/ReadVariableOp", "op": "Const", "attr": {"value": {"tensor": {"dtype": "DT_FLOAT", "tensorShape": {"dim": [{"size": "128"}]}}}, "dtype": {"type": "DT_FLOAT"}}}, {"name": "StatefulPartitionedCall/heavy_chain_align_airr/conv_residual_feature_extraction_block_1/conv1d_and__batch_norm_8/batch_normalization_8/batchnorm/mul", "op": "Const", "attr": {"value": {"tensor": {"dtype": "DT_FLOAT", "tensorShape": {"dim": [{"size": "128"}]}}}, "dtype": {"type": "DT_FLOAT"}}}, {"name": "StatefulPartitionedCall/heavy_chain_align_airr/conv_residual_feature_extraction_block_1/conv1d_and__batch_norm_8/batch_normalization_8/batchnorm/sub", "op": "Const", "attr": {"value": {"tensor": {"dtype": "DT_FLOAT", "tensorShape": {"dim": [{"size": "128"}]}}}, "dtype": {"type": "DT_FLOAT"}}}, {"name": "StatefulPartitionedCall/heavy_chain_align_airr/conv_residual_feature_extraction_block_1/conv1d_and__batch_norm_8/max_pooling1d_13/ExpandDims/dim", "op": "Const", "attr": {"value": {"tensor": {"dtype": "DT_INT32", "tensorShape": {}}}, "dtype": {"type": "DT_INT32"}}}, {"name": "StatefulPartitionedCall/heavy_chain_align_airr/conv_residual_feature_extraction_block_1/conv1d_and__batch_norm_7/conv1d_22/Conv1D/ExpandDims/dim", "op": "Const", "attr": {"value": {"tensor": {"dtype": "DT_INT32", "tensorShape": {}}}, "dtype": {"type": "DT_INT32"}}}, {"name": "StatefulPartitionedCall/heavy_chain_align_airr/conv_residual_feature_extraction_block_1/conv1d_and__batch_norm_7/conv1d_22/Conv1D/ExpandDims_1", "op": "Const", "attr": {"value": {"tensor": {"dtype": "DT_FLOAT", "tensorShape": {"dim": [{"size": "1"}, {"size": "3"}, {"size": "128"}, {"size": "128"}]}}}, "dtype": {"type": "DT_FLOAT"}}}, {"name": "StatefulPartitionedCall/heavy_chain_align_airr/conv_residual_feature_extraction_block_1/conv1d_and__batch_norm_7/conv1d_22/BiasAdd/ReadVariableOp", "op": "Const", "attr": {"value": {"tensor": {"dtype": "DT_FLOAT", "tensorShape": {"dim": [{"size": "128"}]}}}, "dtype": {"type": "DT_FLOAT"}}}, {"name": "StatefulPartitionedCall/heavy_chain_align_airr/conv_residual_feature_extraction_block_1/conv1d_and__batch_norm_7/conv1d_23/Conv1D/ExpandDims/dim", "op": "Const", "attr": {"value": {"tensor": {"dtype": "DT_INT32", "tensorShape": {}}}, "dtype": {"type": "DT_INT32"}}}, {"name": "StatefulPartitionedCall/heavy_chain_align_airr/conv_residual_feature_extraction_block_1/conv1d_and__batch_norm_7/conv1d_23/Conv1D/ExpandDims_1", "op": "Const", "attr": {"value": {"tensor": {"dtype": "DT_FLOAT", "tensorShape": {"dim": [{"size": "1"}, {"size": "3"}, {"size": "128"}, {"size": "128"}]}}}, "dtype": {"type": "DT_FLOAT"}}}, {"name": "StatefulPartitionedCall/heavy_chain_align_airr/conv_residual_feature_extraction_block_1/conv1d_and__batch_norm_7/conv1d_23/BiasAdd/ReadVariableOp", "op": "Const", "attr": {"value": {"tensor": {"dtype": "DT_FLOAT", "tensorShape": {"dim": [{"size": "128"}]}}}, "dtype": {"type": "DT_FLOAT"}}}, {"name": "StatefulPartitionedCall/heavy_chain_align_airr/conv_residual_feature_extraction_block_1/conv1d_and__batch_norm_7/conv1d_24/Conv1D/ExpandDims/dim", "op": "Const", "attr": {"value": {"tensor": {"dtype": "DT_INT32", "tensorShape": {}}}, "dtype": {"type": "DT_INT32"}}}, {"name": "StatefulPartitionedCall/heavy_chain_align_airr/conv_residual_feature_extraction_block_1/conv1d_and__batch_norm_7/conv1d_24/Conv1D/ExpandDims_1", "op": "Const", "attr": {"value": {"tensor": {"dtype": "DT_FLOAT", "tensorShape": {"dim": [{"size": "1"}, {"size": "3"}, {"size": "128"}, {"size": "128"}]}}}, "dtype": {"type": "DT_FLOAT"}}}, {"name": "StatefulPartitionedCall/heavy_chain_align_airr/conv_residual_feature_extraction_block_1/conv1d_and__batch_norm_7/conv1d_24/BiasAdd/ReadVariableOp", "op": "Const", "attr": {"value": {"tensor": {"dtype": "DT_FLOAT", "tensorShape": {"dim": [{"size": "128"}]}}}, "dtype": {"type": "DT_FLOAT"}}}, {"name": "StatefulPartitionedCall/heavy_chain_align_airr/conv_residual_feature_extraction_block_1/conv1d_and__batch_norm_7/batch_normalization_7/batchnorm/mul", "op": "Const", "attr": {"value": {"tensor": {"dtype": "DT_FLOAT", "tensorShape": {"dim": [{"size": "128"}]}}}, "dtype": {"type": "DT_FLOAT"}}}, {"name": "StatefulPartitionedCall/heavy_chain_align_airr/conv_residual_feature_extraction_block_1/conv1d_and__batch_norm_7/batch_normalization_7/batchnorm/sub", "op": "Const", "attr": {"value": {"tensor": {"dtype": "DT_FLOAT", "tensorShape": {"dim": [{"size": "128"}]}}}, "dtype": {"type": "DT_FLOAT"}}}, {"name": "StatefulPartitionedCall/heavy_chain_align_airr/conv_residual_feature_extraction_block_1/conv1d_and__batch_norm_7/max_pooling1d_12/ExpandDims/dim", "op": "Const", "attr": {"value": {"tensor": {"dtype": "DT_INT32", "tensorShape": {}}}, "dtype": {"type": "DT_INT32"}}}, {"name": "StatefulPartitionedCall/heavy_chain_align_airr/conv_residual_feature_extraction_block_1/conv1d_and__batch_norm_6/conv1d_19/Conv1D/ExpandDims/dim", "op": "Const", "attr": {"value": {"tensor": {"dtype": "DT_INT32", "tensorShape": {}}}, "dtype": {"type": "DT_INT32"}}}, {"name": "StatefulPartitionedCall/heavy_chain_align_airr/conv_residual_feature_extraction_block_1/conv1d_and__batch_norm_6/conv1d_19/Conv1D/ExpandDims_1", "op": "Const", "attr": {"value": {"tensor": {"dtype": "DT_FLOAT", "tensorShape": {"dim": [{"size": "1"}, {"size": "3"}, {"size": "128"}, {"size": "128"}]}}}, "dtype": {"type": "DT_FLOAT"}}}, {"name": "StatefulPartitionedCall/heavy_chain_align_airr/conv_residual_feature_extraction_block_1/conv1d_and__batch_norm_6/conv1d_19/BiasAdd/ReadVariableOp", "op": "Const", "attr": {"value": {"tensor": {"dtype": "DT_FLOAT", "tensorShape": {"dim": [{"size": "128"}]}}}, "dtype": {"type": "DT_FLOAT"}}}, {"name": "StatefulPartitionedCall/heavy_chain_align_airr/conv_residual_feature_extraction_block_1/conv1d_and__batch_norm_6/conv1d_20/Conv1D/ExpandDims/dim", "op": "Const", "attr": {"value": {"tensor": {"dtype": "DT_INT32", "tensorShape": {}}}, "dtype": {"type": "DT_INT32"}}}, {"name": "StatefulPartitionedCall/heavy_chain_align_airr/conv_residual_feature_extraction_block_1/conv1d_and__batch_norm_6/conv1d_20/Conv1D/ExpandDims_1", "op": "Const", "attr": {"value": {"tensor": {"dtype": "DT_FLOAT", "tensorShape": {"dim": [{"size": "1"}, {"size": "3"}, {"size": "128"}, {"size": "128"}]}}}, "dtype": {"type": "DT_FLOAT"}}}, {"name": "StatefulPartitionedCall/heavy_chain_align_airr/conv_residual_feature_extraction_block_1/conv1d_and__batch_norm_6/conv1d_20/BiasAdd/ReadVariableOp", "op": "Const", "attr": {"value": {"tensor": {"dtype": "DT_FLOAT", "tensorShape": {"dim": [{"size": "128"}]}}}, "dtype": {"type": "DT_FLOAT"}}}, {"name": "StatefulPartitionedCall/heavy_chain_align_airr/conv_residual_feature_extraction_block_1/conv1d_and__batch_norm_6/conv1d_21/Conv1D/ExpandDims/dim", "op": "Const", "attr": {"value": {"tensor": {"dtype": "DT_INT32", "tensorShape": {}}}, "dtype": {"type": "DT_INT32"}}}, {"name": "StatefulPartitionedCall/heavy_chain_align_airr/conv_residual_feature_extraction_block_1/conv1d_and__batch_norm_6/conv1d_21/Conv1D/ExpandDims_1", "op": "Const", "attr": {"value": {"tensor": {"dtype": "DT_FLOAT", "tensorShape": {"dim": [{"size": "1"}, {"size": "3"}, {"size": "128"}, {"size": "128"}]}}}, "dtype": {"type": "DT_FLOAT"}}}, {"name": "StatefulPartitionedCall/heavy_chain_align_airr/conv_residual_feature_extraction_block_1/conv1d_and__batch_norm_6/conv1d_21/BiasAdd/ReadVariableOp", "op": "Const", "attr": {"value": {"tensor": {"dtype": "DT_FLOAT", "tensorShape": {"dim": [{"size": "128"}]}}}, "dtype": {"type": "DT_FLOAT"}}}, {"name": "StatefulPartitionedCall/heavy_chain_align_airr/conv_residual_feature_extraction_block_1/conv1d_and__batch_norm_6/batch_normalization_6/batchnorm/mul", "op": "Const", "attr": {"value": {"tensor": {"dtype": "DT_FLOAT", "tensorShape": {"dim": [{"size": "128"}]}}}, "dtype": {"type": "DT_FLOAT"}}}, {"name": "StatefulPartitionedCall/heavy_chain_align_airr/conv_residual_feature_extraction_block_1/conv1d_and__batch_norm_6/batch_normalization_6/batchnorm/sub", "op": "Const", "attr": {"value": {"tensor": {"dtype": "DT_FLOAT", "tensorShape": {"dim": [{"size": "128"}]}}}, "dtype": {"type": "DT_FLOAT"}}}, {"name": "StatefulPartitionedCall/heavy_chain_align_airr/conv_residual_feature_extraction_block_1/conv1d_and__batch_norm_6/max_pooling1d_11/ExpandDims/dim", "op": "Const", "attr": {"value": {"tensor": {"dtype": "DT_INT32", "tensorShape": {}}}, "dtype": {"type": "DT_INT32"}}}, {"name": "StatefulPartitionedCall/heavy_chain_align_airr/conv_residual_feature_extraction_block_1/conv1d_and__batch_norm_5/conv1d_16/Conv1D/ExpandDims/dim", "op": "Const", "attr": {"value": {"tensor": {"dtype": "DT_INT32", "tensorShape": {}}}, "dtype": {"type": "DT_INT32"}}}, {"name": "StatefulPartitionedCall/heavy_chain_align_airr/conv_residual_feature_extraction_block_1/conv1d_and__batch_norm_5/conv1d_16/Conv1D/ExpandDims_1", "op": "Const", "attr": {"value": {"tensor": {"dtype": "DT_FLOAT", "tensorShape": {"dim": [{"size": "1"}, {"size": "3"}, {"size": "32"}, {"size": "128"}]}}}, "dtype": {"type": "DT_FLOAT"}}}, {"name": "StatefulPartitionedCall/heavy_chain_align_airr/conv_residual_feature_extraction_block_1/conv1d_and__batch_norm_5/conv1d_16/BiasAdd/ReadVariableOp", "op": "Const", "attr": {"value": {"tensor": {"dtype": "DT_FLOAT", "tensorShape": {"dim": [{"size": "128"}]}}}, "dtype": {"type": "DT_FLOAT"}}}, {"name": "StatefulPartitionedCall/heavy_chain_align_airr/conv_residual_feature_extraction_block_1/conv1d_and__batch_norm_5/conv1d_17/Conv1D/ExpandDims/dim", "op": "Const", "attr": {"value": {"tensor": {"dtype": "DT_INT32", "tensorShape": {}}}, "dtype": {"type": "DT_INT32"}}}, {"name": "StatefulPartitionedCall/heavy_chain_align_airr/conv_residual_feature_extraction_block_1/conv1d_and__batch_norm_5/conv1d_17/Conv1D/ExpandDims_1", "op": "Const", "attr": {"value": {"tensor": {"dtype": "DT_FLOAT", "tensorShape": {"dim": [{"size": "1"}, {"size": "3"}, {"size": "128"}, {"size": "128"}]}}}, "dtype": {"type": "DT_FLOAT"}}}, {"name": "StatefulPartitionedCall/heavy_chain_align_airr/conv_residual_feature_extraction_block_1/conv1d_and__batch_norm_5/conv1d_17/BiasAdd/ReadVariableOp", "op": "Const", "attr": {"value": {"tensor": {"dtype": "DT_FLOAT", "tensorShape": {"dim": [{"size": "128"}]}}}, "dtype": {"type": "DT_FLOAT"}}}, {"name": "StatefulPartitionedCall/heavy_chain_align_airr/conv_residual_feature_extraction_block_1/conv1d_and__batch_norm_5/conv1d_18/Conv1D/ExpandDims/dim", "op": "Const", "attr": {"value": {"tensor": {"dtype": "DT_INT32", "tensorShape": {}}}, "dtype": {"type": "DT_INT32"}}}, {"name": "StatefulPartitionedCall/heavy_chain_align_airr/conv_residual_feature_extraction_block_1/conv1d_and__batch_norm_5/conv1d_18/Conv1D/ExpandDims_1", "op": "Const", "attr": {"value": {"tensor": {"dtype": "DT_FLOAT", "tensorShape": {"dim": [{"size": "1"}, {"size": "3"}, {"size": "128"}, {"size": "128"}]}}}, "dtype": {"type": "DT_FLOAT"}}}, {"name": "StatefulPartitionedCall/heavy_chain_align_airr/conv_residual_feature_extraction_block_1/conv1d_and__batch_norm_5/conv1d_18/BiasAdd/ReadVariableOp", "op": "Const", "attr": {"value": {"tensor": {"dtype": "DT_FLOAT", "tensorShape": {"dim": [{"size": "128"}]}}}, "dtype": {"type": "DT_FLOAT"}}}, {"name": "StatefulPartitionedCall/heavy_chain_align_airr/conv_residual_feature_extraction_block_1/conv1d_and__batch_norm_5/batch_normalization_5/batchnorm/mul", "op": "Const", "attr": {"value": {"tensor": {"dtype": "DT_FLOAT", "tensorShape": {"dim": [{"size": "128"}]}}}, "dtype": {"type": "DT_FLOAT"}}}, {"name": "StatefulPartitionedCall/heavy_chain_align_airr/conv_residual_feature_extraction_block_1/conv1d_and__batch_norm_5/batch_normalization_5/batchnorm/sub", "op": "Const", "attr": {"value": {"tensor": {"dtype": "DT_FLOAT", "tensorShape": {"dim": [{"size": "128"}]}}}, "dtype": {"type": "DT_FLOAT"}}}, {"name": "StatefulPartitionedCall/heavy_chain_align_airr/conv_residual_feature_extraction_block_1/conv1d_and__batch_norm_5/max_pooling1d_10/ExpandDims/dim", "op": "Const", "attr": {"value": {"tensor": {"dtype": "DT_INT32", "tensorShape": {}}}, "dtype": {"type": "DT_INT32"}}}, {"name": "StatefulPartitionedCall/heavy_chain_align_airr/reshape/strided_slice/stack", "op": "Const", "attr": {"value": {"tensor": {"dtype": "DT_INT32", "tensorShape": {"dim": [{"size": "1"}]}}}, "dtype": {"type": "DT_INT32"}}}, {"name": "StatefulPartitionedCall/heavy_chain_align_airr/reshape/strided_slice/stack_1", "op": "Const", "attr": {"value": {"tensor": {"dtype": "DT_INT32", "tensorShape": {"dim": [{"size": "1"}]}}}, "dtype": {"type": "DT_INT32"}}}, {"name": "StatefulPartitionedCall/heavy_chain_align_airr/reshape/strided_slice/stack_2", "op": "Const", "attr": {"value": {"tensor": {"dtype": "DT_INT32", "tensorShape": {"dim": [{"size": "1"}]}}}, "dtype": {"type": "DT_INT32"}}}, {"name": "StatefulPartitionedCall/heavy_chain_align_airr/reshape/Reshape/shape/1", "op": "Const", "attr": {"value": {"tensor": {"dtype": "DT_INT32", "tensorShape": {}}}, "dtype": {"type": "DT_INT32"}}}, {"name": "StatefulPartitionedCall/heavy_chain_align_airr/reshape/Reshape/shape/2", "op": "Const", "attr": {"value": {"tensor": {"dtype": "DT_INT32", "tensorShape": {}}}, "dtype": {"type": "DT_INT32"}}}, {"name": "StatefulPartitionedCall/heavy_chain_align_airr/conv_residual_feature_extraction_block_1/conv1d_34/Conv1D/ExpandDims/dim", "op": "Const", "attr": {"value": {"tensor": {"dtype": "DT_INT32", "tensorShape": {}}}, "dtype": {"type": "DT_INT32"}}}, {"name": "StatefulPartitionedCall/heavy_chain_align_airr/conv_residual_feature_extraction_block_1/conv1d_34/Conv1D/ExpandDims_1", "op": "Const", "attr": {"value": {"tensor": {"dtype": "DT_FLOAT", "tensorShape": {"dim": [{"size": "1"}, {"size": "5"}, {"size": "32"}, {"size": "128"}]}}}, "dtype": {"type": "DT_FLOAT"}}}, {"name": "StatefulPartitionedCall/heavy_chain_align_airr/conv_residual_feature_extraction_block_1/conv1d_34/BiasAdd/ReadVariableOp", "op": "Const", "attr": {"value": {"tensor": {"dtype": "DT_FLOAT", "tensorShape": {"dim": [{"size": "128"}]}}}, "dtype": {"type": "DT_FLOAT"}}}, {"name": "StatefulPartitionedCall/heavy_chain_align_airr/conv_residual_feature_extraction_block_1/max_pooling1d_16/ExpandDims/dim", "op": "Const", "attr": {"value": {"tensor": {"dtype": "DT_INT32", "tensorShape": {}}}, "dtype": {"type": "DT_INT32"}}}, {"name": "StatefulPartitionedCall/heavy_chain_align_airr/conv_residual_feature_extraction_block_1/max_pooling1d_16/ExpandDims_1/dim", "op": "Const", "attr": {"value": {"tensor": {"dtype": "DT_INT32", "tensorShape": {}}}, "dtype": {"type": "DT_INT32"}}}, {"name": "StatefulPartitionedCall/heavy_chain_align_airr/conv_residual_feature_extraction_block_1/max_pooling1d_17/ExpandDims/dim", "op": "Const", "attr": {"value": {"tensor": {"dtype": "DT_INT32", "tensorShape": {}}}, "dtype": {"type": "DT_INT32"}}}, {"name": "StatefulPartitionedCall/heavy_chain_align_airr/conv_residual_feature_extraction_block_1/max_pooling1d_18/ExpandDims/dim", "op": "Const", "attr": {"value": {"tensor": {"dtype": "DT_INT32", "tensorShape": {}}}, "dtype": {"type": "DT_INT32"}}}, {"name": "StatefulPartitionedCall/heavy_chain_align_airr/conv_residual_feature_extraction_block_1/max_pooling1d_19/ExpandDims/dim", "op": "Const", "attr": {"value": {"tensor": {"dtype": "DT_INT32", "tensorShape": {}}}, "dtype": {"type": "DT_INT32"}}}, {"name": "StatefulPartitionedCall/heavy_chain_align_airr/conv_residual_feature_extraction_block_1/max_pooling1d_20/ExpandDims/dim", "op": "Const", "attr": {"value": {"tensor": {"dtype": "DT_INT32", "tensorShape": {}}}, "dtype": {"type": "DT_INT32"}}}, {"name": "StatefulPartitionedCall/heavy_chain_align_airr/conv_residual_feature_extraction_block_1/max_pooling1d_21/ExpandDims/dim", "op": "Const", "attr": {"value": {"tensor": {"dtype": "DT_INT32", "tensorShape": {}}}, "dtype": {"type": "DT_INT32"}}}, {"name": "StatefulPartitionedCall/heavy_chain_align_airr/conv_residual_feature_extraction_block_1/flatten_1/Const", "op": "Const", "attr": {"value": {"tensor": {"dtype": "DT_INT32", "tensorShape": {"dim": [{"size": "2"}]}}}, "dtype": {"type": "DT_INT32"}}}, {"name": "StatefulPartitionedCall/heavy_chain_align_airr/v_allele_middle/MatMul/ReadVariableOp", "op": "Const", "attr": {"value": {"tensor": {"dtype": "DT_FLOAT", "tensorShape": {"dim": [{"size": "512"}, {"size": "396"}]}}}, "dtype": {"type": "DT_FLOAT"}}}, {"name": "StatefulPartitionedCall/heavy_chain_align_airr/v_allele_middle/BiasAdd/ReadVariableOp", "op": "Const", "attr": {"value": {"tensor": {"dtype": "DT_FLOAT", "tensorShape": {"dim": [{"size": "396"}]}}}, "dtype": {"type": "DT_FLOAT"}}}, {"name": "StatefulPartitionedCall/heavy_chain_align_airr/v_allele/MatMul/ReadVariableOp", "op": "Const", "attr": {"value": {"tensor": {"dtype": "DT_FLOAT", "tensorShape": {"dim": [{"size": "396"}, {"size": "198"}]}}}, "dtype": {"type": "DT_FLOAT"}}}, {"name": "StatefulPartitionedCall/heavy_chain_align_airr/v_allele/BiasAdd/ReadVariableOp", "op": "Const", "attr": {"value": {"tensor": {"dtype": "DT_FLOAT", "tensorShape": {"dim": [{"size": "198"}]}}}, "dtype": {"type": "DT_FLOAT"}}}, {"name": "StatefulPartitionedCall/heavy_chain_align_airr/conv_residual_feature_extraction_block/conv1d_and__batch_norm_4/conv1d_12/Conv1D/ExpandDims/dim", "op": "Const", "attr": {"value": {"tensor": {"dtype": "DT_INT32", "tensorShape": {}}}, "dtype": {"type": "DT_INT32"}}}, {"name": "StatefulPartitionedCall/heavy_chain_align_airr/conv_residual_feature_extraction_block/conv1d_and__batch_norm_4/conv1d_12/Conv1D/ExpandDims_1", "op": "Const", "attr": {"value": {"tensor": {"dtype": "DT_FLOAT", "tensorShape": {"dim": [{"size": "1"}, {"size": "5"}, {"size": "64"}, {"size": "64"}]}}}, "dtype": {"type": "DT_FLOAT"}}}, {"name": "StatefulPartitionedCall/heavy_chain_align_airr/conv_residual_feature_extraction_block/conv1d_and__batch_norm_4/conv1d_12/BiasAdd/ReadVariableOp", "op": "Const", "attr": {"value": {"tensor": {"dtype": "DT_FLOAT", "tensorShape": {"dim": [{"size": "64"}]}}}, "dtype": {"type": "DT_FLOAT"}}}, {"name": "StatefulPartitionedCall/heavy_chain_align_airr/conv_residual_feature_extraction_block/conv1d_and__batch_norm_4/conv1d_13/Conv1D/ExpandDims/dim", "op": "Const", "attr": {"value": {"tensor": {"dtype": "DT_INT32", "tensorShape": {}}}, "dtype": {"type": "DT_INT32"}}}, {"name": "StatefulPartitionedCall/heavy_chain_align_airr/conv_residual_feature_extraction_block/conv1d_and__batch_norm_4/conv1d_13/Conv1D/ExpandDims_1", "op": "Const", "attr": {"value": {"tensor": {"dtype": "DT_FLOAT", "tensorShape": {"dim": [{"size": "1"}, {"size": "5"}, {"size": "64"}, {"size": "64"}]}}}, "dtype": {"type": "DT_FLOAT"}}}, {"name": "StatefulPartitionedCall/heavy_chain_align_airr/conv_residual_feature_extraction_block/conv1d_and__batch_norm_4/conv1d_13/BiasAdd/ReadVariableOp", "op": "Const", "attr": {"value": {"tensor": {"dtype": "DT_FLOAT", "tensorShape": {"dim": [{"size": "64"}]}}}, "dtype": {"type": "DT_FLOAT"}}}, {"name": "StatefulPartitionedCall/heavy_chain_align_airr/conv_residual_feature_extraction_block/conv1d_and__batch_norm_4/conv1d_14/Conv1D/ExpandDims/dim", "op": "Const", "attr": {"value": {"tensor": {"dtype": "DT_INT32", "tensorShape": {}}}, "dtype": {"type": "DT_INT32"}}}, {"name": "StatefulPartitionedCall/heavy_chain_align_airr/conv_residual_feature_extraction_block/conv1d_and__batch_norm_4/conv1d_14/Conv1D/ExpandDims_1", "op": "Const", "attr": {"value": {"tensor": {"dtype": "DT_FLOAT", "tensorShape": {"dim": [{"size": "1"}, {"size": "5"}, {"size": "64"}, {"size": "64"}]}}}, "dtype": {"type": "DT_FLOAT"}}}, {"name": "StatefulPartitionedCall/heavy_chain_align_airr/conv_residual_feature_extraction_block/conv1d_and__batch_norm_4/conv1d_14/BiasAdd/ReadVariableOp", "op": "Const", "attr": {"value": {"tensor": {"dtype": "DT_FLOAT", "tensorShape": {"dim": [{"size": "64"}]}}}, "dtype": {"type": "DT_FLOAT"}}}, {"name": "StatefulPartitionedCall/heavy_chain_align_airr/conv_residual_feature_extraction_block/conv1d_and__batch_norm_4/batch_normalization_4/batchnorm/mul", "op": "Const", "attr": {"value": {"tensor": {"dtype": "DT_FLOAT", "tensorShape": {"dim": [{"size": "64"}]}}}, "dtype": {"type": "DT_FLOAT"}}}, {"name": "StatefulPartitionedCall/heavy_chain_align_airr/conv_residual_feature_extraction_block/conv1d_and__batch_norm_4/batch_normalization_4/batchnorm/sub", "op": "Const", "attr": {"value": {"tensor": {"dtype": "DT_FLOAT", "tensorShape": {"dim": [{"size": "64"}]}}}, "dtype": {"type": "DT_FLOAT"}}}, {"name": "StatefulPartitionedCall/heavy_chain_align_airr/conv_residual_feature_extraction_block/conv1d_and__batch_norm_4/max_pooling1d_4/ExpandDims/dim", "op": "Const", "attr": {"value": {"tensor": {"dtype": "DT_INT32", "tensorShape": {}}}, "dtype": {"type": "DT_INT32"}}}, {"name": "StatefulPartitionedCall/heavy_chain_align_airr/conv_residual_feature_extraction_block/conv1d_and__batch_norm_3/conv1d_9/Conv1D/ExpandDims/dim", "op": "Const", "attr": {"value": {"tensor": {"dtype": "DT_INT32", "tensorShape": {}}}, "dtype": {"type": "DT_INT32"}}}, {"name": "StatefulPartitionedCall/heavy_chain_align_airr/conv_residual_feature_extraction_block/conv1d_and__batch_norm_3/conv1d_9/Conv1D/ExpandDims_1", "op": "Const", "attr": {"value": {"tensor": {"dtype": "DT_FLOAT", "tensorShape": {"dim": [{"size": "1"}, {"size": "3"}, {"size": "64"}, {"size": "64"}]}}}, "dtype": {"type": "DT_FLOAT"}}}, {"name": "StatefulPartitionedCall/heavy_chain_align_airr/conv_residual_feature_extraction_block/conv1d_and__batch_norm_3/conv1d_9/BiasAdd/ReadVariableOp", "op": "Const", "attr": {"value": {"tensor": {"dtype": "DT_FLOAT", "tensorShape": {"dim": [{"size": "64"}]}}}, "dtype": {"type": "DT_FLOAT"}}}, {"name": "StatefulPartitionedCall/heavy_chain_align_airr/conv_residual_feature_extraction_block/conv1d_and__batch_norm_3/conv1d_10/Conv1D/ExpandDims/dim", "op": "Const", "attr": {"value": {"tensor": {"dtype": "DT_INT32", "tensorShape": {}}}, "dtype": {"type": "DT_INT32"}}}, {"name": "StatefulPartitionedCall/heavy_chain_align_airr/conv_residual_feature_extraction_block/conv1d_and__batch_norm_3/conv1d_10/Conv1D/ExpandDims_1", "op": "Const", "attr": {"value": {"tensor": {"dtype": "DT_FLOAT", "tensorShape": {"dim": [{"size": "1"}, {"size": "3"}, {"size": "64"}, {"size": "64"}]}}}, "dtype": {"type": "DT_FLOAT"}}}, {"name": "StatefulPartitionedCall/heavy_chain_align_airr/conv_residual_feature_extraction_block/conv1d_and__batch_norm_3/conv1d_10/BiasAdd/ReadVariableOp", "op": "Const", "attr": {"value": {"tensor": {"dtype": "DT_FLOAT", "tensorShape": {"dim": [{"size": "64"}]}}}, "dtype": {"type": "DT_FLOAT"}}}, {"name": "StatefulPartitionedCall/heavy_chain_align_airr/conv_residual_feature_extraction_block/conv1d_and__batch_norm_3/conv1d_11/Conv1D/ExpandDims/dim", "op": "Const", "attr": {"value": {"tensor": {"dtype": "DT_INT32", "tensorShape": {}}}, "dtype": {"type": "DT_INT32"}}}, {"name": "StatefulPartitionedCall/heavy_chain_align_airr/conv_residual_feature_extraction_block/conv1d_and__batch_norm_3/conv1d_11/Conv1D/ExpandDims_1", "op": "Const", "attr": {"value": {"tensor": {"dtype": "DT_FLOAT", "tensorShape": {"dim": [{"size": "1"}, {"size": "3"}, {"size": "64"}, {"size": "64"}]}}}, "dtype": {"type": "DT_FLOAT"}}}, {"name": "StatefulPartitionedCall/heavy_chain_align_airr/conv_residual_feature_extraction_block/conv1d_and__batch_norm_3/conv1d_11/BiasAdd/ReadVariableOp", "op": "Const", "attr": {"value": {"tensor": {"dtype": "DT_FLOAT", "tensorShape": {"dim": [{"size": "64"}]}}}, "dtype": {"type": "DT_FLOAT"}}}, {"name": "StatefulPartitionedCall/heavy_chain_align_airr/conv_residual_feature_extraction_block/conv1d_and__batch_norm_3/batch_normalization_3/batchnorm/mul", "op": "Const", "attr": {"value": {"tensor": {"dtype": "DT_FLOAT", "tensorShape": {"dim": [{"size": "64"}]}}}, "dtype": {"type": "DT_FLOAT"}}}, {"name": "StatefulPartitionedCall/heavy_chain_align_airr/conv_residual_feature_extraction_block/conv1d_and__batch_norm_3/batch_normalization_3/batchnorm/sub", "op": "Const", "attr": {"value": {"tensor": {"dtype": "DT_FLOAT", "tensorShape": {"dim": [{"size": "64"}]}}}, "dtype": {"type": "DT_FLOAT"}}}, {"name": "StatefulPartitionedCall/heavy_chain_align_airr/conv_residual_feature_extraction_block/conv1d_and__batch_norm_3/max_pooling1d_3/ExpandDims/dim", "op": "Const", "attr": {"value": {"tensor": {"dtype": "DT_INT32", "tensorShape": {}}}, "dtype": {"type": "DT_INT32"}}}, {"name": "StatefulPartitionedCall/heavy_chain_align_airr/conv_residual_feature_extraction_block/conv1d_and__batch_norm_2/conv1d_6/Conv1D/ExpandDims/dim", "op": "Const", "attr": {"value": {"tensor": {"dtype": "DT_INT32", "tensorShape": {}}}, "dtype": {"type": "DT_INT32"}}}, {"name": "StatefulPartitionedCall/heavy_chain_align_airr/conv_residual_feature_extraction_block/conv1d_and__batch_norm_2/conv1d_6/Conv1D/ExpandDims_1", "op": "Const", "attr": {"value": {"tensor": {"dtype": "DT_FLOAT", "tensorShape": {"dim": [{"size": "1"}, {"size": "5"}, {"size": "64"}, {"size": "64"}]}}}, "dtype": {"type": "DT_FLOAT"}}}, {"name": "StatefulPartitionedCall/heavy_chain_align_airr/conv_residual_feature_extraction_block/conv1d_and__batch_norm_2/conv1d_6/BiasAdd/ReadVariableOp", "op": "Const", "attr": {"value": {"tensor": {"dtype": "DT_FLOAT", "tensorShape": {"dim": [{"size": "64"}]}}}, "dtype": {"type": "DT_FLOAT"}}}, {"name": "StatefulPartitionedCall/heavy_chain_align_airr/conv_residual_feature_extraction_block/conv1d_and__batch_norm_2/conv1d_7/Conv1D/ExpandDims/dim", "op": "Const", "attr": {"value": {"tensor": {"dtype": "DT_INT32", "tensorShape": {}}}, "dtype": {"type": "DT_INT32"}}}, {"name": "StatefulPartitionedCall/heavy_chain_align_airr/conv_residual_feature_extraction_block/conv1d_and__batch_norm_2/conv1d_7/Conv1D/ExpandDims_1", "op": "Const", "attr": {"value": {"tensor": {"dtype": "DT_FLOAT", "tensorShape": {"dim": [{"size": "1"}, {"size": "5"}, {"size": "64"}, {"size": "64"}]}}}, "dtype": {"type": "DT_FLOAT"}}}, {"name": "StatefulPartitionedCall/heavy_chain_align_airr/conv_residual_feature_extraction_block/conv1d_and__batch_norm_2/conv1d_7/BiasAdd/ReadVariableOp", "op": "Const", "attr": {"value": {"tensor": {"dtype": "DT_FLOAT", "tensorShape": {"dim": [{"size": "64"}]}}}, "dtype": {"type": "DT_FLOAT"}}}, {"name": "StatefulPartitionedCall/heavy_chain_align_airr/conv_residual_feature_extraction_block/conv1d_and__batch_norm_2/conv1d_8/Conv1D/ExpandDims/dim", "op": "Const", "attr": {"value": {"tensor": {"dtype": "DT_INT32", "tensorShape": {}}}, "dtype": {"type": "DT_INT32"}}}, {"name": "StatefulPartitionedCall/heavy_chain_align_airr/conv_residual_feature_extraction_block/conv1d_and__batch_norm_2/conv1d_8/Conv1D/ExpandDims_1", "op": "Const", "attr": {"value": {"tensor": {"dtype": "DT_FLOAT", "tensorShape": {"dim": [{"size": "1"}, {"size": "5"}, {"size": "64"}, {"size": "64"}]}}}, "dtype": {"type": "DT_FLOAT"}}}, {"name": "StatefulPartitionedCall/heavy_chain_align_airr/conv_residual_feature_extraction_block/conv1d_and__batch_norm_2/conv1d_8/BiasAdd/ReadVariableOp", "op": "Const", "attr": {"value": {"tensor": {"dtype": "DT_FLOAT", "tensorShape": {"dim": [{"size": "64"}]}}}, "dtype": {"type": "DT_FLOAT"}}}, {"name": "StatefulPartitionedCall/heavy_chain_align_airr/conv_residual_feature_extraction_block/conv1d_and__batch_norm_2/batch_normalization_2/batchnorm/mul", "op": "Const", "attr": {"value": {"tensor": {"dtype": "DT_FLOAT", "tensorShape": {"dim": [{"size": "64"}]}}}, "dtype": {"type": "DT_FLOAT"}}}, {"name": "StatefulPartitionedCall/heavy_chain_align_airr/conv_residual_feature_extraction_block/conv1d_and__batch_norm_2/batch_normalization_2/batchnorm/sub", "op": "Const", "attr": {"value": {"tensor": {"dtype": "DT_FLOAT", "tensorShape": {"dim": [{"size": "64"}]}}}, "dtype": {"type": "DT_FLOAT"}}}, {"name": "StatefulPartitionedCall/heavy_chain_align_airr/conv_residual_feature_extraction_block/conv1d_and__batch_norm_2/max_pooling1d_2/ExpandDims/dim", "op": "Const", "attr": {"value": {"tensor": {"dtype": "DT_INT32", "tensorShape": {}}}, "dtype": {"type": "DT_INT32"}}}, {"name": "StatefulPartitionedCall/heavy_chain_align_airr/conv_residual_feature_extraction_block/conv1d_and__batch_norm_1/conv1d_3/Conv1D/ExpandDims/dim", "op": "Const", "attr": {"value": {"tensor": {"dtype": "DT_INT32", "tensorShape": {}}}, "dtype": {"type": "DT_INT32"}}}, {"name": "StatefulPartitionedCall/heavy_chain_align_airr/conv_residual_feature_extraction_block/conv1d_and__batch_norm_1/conv1d_3/Conv1D/ExpandDims_1", "op": "Const", "attr": {"value": {"tensor": {"dtype": "DT_FLOAT", "tensorShape": {"dim": [{"size": "1"}, {"size": "5"}, {"size": "64"}, {"size": "64"}]}}}, "dtype": {"type": "DT_FLOAT"}}}, {"name": "StatefulPartitionedCall/heavy_chain_align_airr/conv_residual_feature_extraction_block/conv1d_and__batch_norm_1/conv1d_3/BiasAdd/ReadVariableOp", "op": "Const", "attr": {"value": {"tensor": {"dtype": "DT_FLOAT", "tensorShape": {"dim": [{"size": "64"}]}}}, "dtype": {"type": "DT_FLOAT"}}}, {"name": "StatefulPartitionedCall/heavy_chain_align_airr/conv_residual_feature_extraction_block/conv1d_and__batch_norm_1/conv1d_4/Conv1D/ExpandDims/dim", "op": "Const", "attr": {"value": {"tensor": {"dtype": "DT_INT32", "tensorShape": {}}}, "dtype": {"type": "DT_INT32"}}}, {"name": "StatefulPartitionedCall/heavy_chain_align_airr/conv_residual_feature_extraction_block/conv1d_and__batch_norm_1/conv1d_4/Conv1D/ExpandDims_1", "op": "Const", "attr": {"value": {"tensor": {"dtype": "DT_FLOAT", "tensorShape": {"dim": [{"size": "1"}, {"size": "5"}, {"size": "64"}, {"size": "64"}]}}}, "dtype": {"type": "DT_FLOAT"}}}, {"name": "StatefulPartitionedCall/heavy_chain_align_airr/conv_residual_feature_extraction_block/conv1d_and__batch_norm_1/conv1d_4/BiasAdd/ReadVariableOp", "op": "Const", "attr": {"value": {"tensor": {"dtype": "DT_FLOAT", "tensorShape": {"dim": [{"size": "64"}]}}}, "dtype": {"type": "DT_FLOAT"}}}, {"name": "StatefulPartitionedCall/heavy_chain_align_airr/conv_residual_feature_extraction_block/conv1d_and__batch_norm_1/conv1d_5/Conv1D/ExpandDims/dim", "op": "Const", "attr": {"value": {"tensor": {"dtype": "DT_INT32", "tensorShape": {}}}, "dtype": {"type": "DT_INT32"}}}, {"name": "StatefulPartitionedCall/heavy_chain_align_airr/conv_residual_feature_extraction_block/conv1d_and__batch_norm_1/conv1d_5/Conv1D/ExpandDims_1", "op": "Const", "attr": {"value": {"tensor": {"dtype": "DT_FLOAT", "tensorShape": {"dim": [{"size": "1"}, {"size": "5"}, {"size": "64"}, {"size": "64"}]}}}, "dtype": {"type": "DT_FLOAT"}}}, {"name": "StatefulPartitionedCall/heavy_chain_align_airr/conv_residual_feature_extraction_block/conv1d_and__batch_norm_1/conv1d_5/BiasAdd/ReadVariableOp", "op": "Const", "attr": {"value": {"tensor": {"dtype": "DT_FLOAT", "tensorShape": {"dim": [{"size": "64"}]}}}, "dtype": {"type": "DT_FLOAT"}}}, {"name": "StatefulPartitionedCall/heavy_chain_align_airr/conv_residual_feature_extraction_block/conv1d_and__batch_norm_1/batch_normalization_1/batchnorm/mul", "op": "Const", "attr": {"value": {"tensor": {"dtype": "DT_FLOAT", "tensorShape": {"dim": [{"size": "64"}]}}}, "dtype": {"type": "DT_FLOAT"}}}, {"name": "StatefulPartitionedCall/heavy_chain_align_airr/conv_residual_feature_extraction_block/conv1d_and__batch_norm_1/batch_normalization_1/batchnorm/sub", "op": "Const", "attr": {"value": {"tensor": {"dtype": "DT_FLOAT", "tensorShape": {"dim": [{"size": "64"}]}}}, "dtype": {"type": "DT_FLOAT"}}}, {"name": "StatefulPartitionedCall/heavy_chain_align_airr/conv_residual_feature_extraction_block/conv1d_and__batch_norm_1/max_pooling1d_1/ExpandDims/dim", "op": "Const", "attr": {"value": {"tensor": {"dtype": "DT_INT32", "tensorShape": {}}}, "dtype": {"type": "DT_INT32"}}}, {"name": "StatefulPartitionedCall/heavy_chain_align_airr/conv_residual_feature_extraction_block/conv1d_and__batch_norm/conv1d/Conv1D/ExpandDims/dim", "op": "Const", "attr": {"value": {"tensor": {"dtype": "DT_INT32", "tensorShape": {}}}, "dtype": {"type": "DT_INT32"}}}, {"name": "StatefulPartitionedCall/heavy_chain_align_airr/conv_residual_feature_extraction_block/conv1d_and__batch_norm/conv1d/Conv1D/ExpandDims_1", "op": "Const", "attr": {"value": {"tensor": {"dtype": "DT_FLOAT", "tensorShape": {"dim": [{"size": "1"}, {"size": "2"}, {"size": "32"}, {"size": "64"}]}}}, "dtype": {"type": "DT_FLOAT"}}}, {"name": "StatefulPartitionedCall/heavy_chain_align_airr/conv_residual_feature_extraction_block/conv1d_and__batch_norm/conv1d/BiasAdd/ReadVariableOp", "op": "Const", "attr": {"value": {"tensor": {"dtype": "DT_FLOAT", "tensorShape": {"dim": [{"size": "64"}]}}}, "dtype": {"type": "DT_FLOAT"}}}, {"name": "StatefulPartitionedCall/heavy_chain_align_airr/conv_residual_feature_extraction_block/conv1d_and__batch_norm/conv1d_1/Conv1D/ExpandDims/dim", "op": "Const", "attr": {"value": {"tensor": {"dtype": "DT_INT32", "tensorShape": {}}}, "dtype": {"type": "DT_INT32"}}}, {"name": "StatefulPartitionedCall/heavy_chain_align_airr/conv_residual_feature_extraction_block/conv1d_and__batch_norm/conv1d_1/Conv1D/ExpandDims_1", "op": "Const", "attr": {"value": {"tensor": {"dtype": "DT_FLOAT", "tensorShape": {"dim": [{"size": "1"}, {"size": "2"}, {"size": "64"}, {"size": "64"}]}}}, "dtype": {"type": "DT_FLOAT"}}}, {"name": "StatefulPartitionedCall/heavy_chain_align_airr/conv_residual_feature_extraction_block/conv1d_and__batch_norm/conv1d_1/BiasAdd/ReadVariableOp", "op": "Const", "attr": {"value": {"tensor": {"dtype": "DT_FLOAT", "tensorShape": {"dim": [{"size": "64"}]}}}, "dtype": {"type": "DT_FLOAT"}}}, {"name": "StatefulPartitionedCall/heavy_chain_align_airr/conv_residual_feature_extraction_block/conv1d_and__batch_norm/conv1d_2/Conv1D/ExpandDims/dim", "op": "Const", "attr": {"value": {"tensor": {"dtype": "DT_INT32", "tensorShape": {}}}, "dtype": {"type": "DT_INT32"}}}, {"name": "StatefulPartitionedCall/heavy_chain_align_airr/conv_residual_feature_extraction_block/conv1d_and__batch_norm/conv1d_2/Conv1D/ExpandDims_1", "op": "Const", "attr": {"value": {"tensor": {"dtype": "DT_FLOAT", "tensorShape": {"dim": [{"size": "1"}, {"size": "2"}, {"size": "64"}, {"size": "64"}]}}}, "dtype": {"type": "DT_FLOAT"}}}, {"name": "StatefulPartitionedCall/heavy_chain_align_airr/conv_residual_feature_extraction_block/conv1d_and__batch_norm/conv1d_2/BiasAdd/ReadVariableOp", "op": "Const", "attr": {"value": {"tensor": {"dtype": "DT_FLOAT", "tensorShape": {"dim": [{"size": "64"}]}}}, "dtype": {"type": "DT_FLOAT"}}}, {"name": "StatefulPartitionedCall/heavy_chain_align_airr/conv_residual_feature_extraction_block/conv1d_and__batch_norm/batch_normalization/batchnorm/mul", "op": "Const", "attr": {"value": {"tensor": {"dtype": "DT_FLOAT", "tensorShape": {"dim": [{"size": "64"}]}}}, "dtype": {"type": "DT_FLOAT"}}}, {"name": "StatefulPartitionedCall/heavy_chain_align_airr/conv_residual_feature_extraction_block/conv1d_and__batch_norm/batch_normalization/batchnorm/sub", "op": "Const", "attr": {"value": {"tensor": {"dtype": "DT_FLOAT", "tensorShape": {"dim": [{"size": "64"}]}}}, "dtype": {"type": "DT_FLOAT"}}}, {"name": "StatefulPartitionedCall/heavy_chain_align_airr/conv_residual_feature_extraction_block/conv1d_and__batch_norm/max_pooling1d/ExpandDims/dim", "op": "Const", "attr": {"value": {"tensor": {"dtype": "DT_INT32", "tensorShape": {}}}, "dtype": {"type": "DT_INT32"}}}, {"name": "unknown_0", "op": "Const", "attr": {"value": {"tensor": {"dtype": "DT_FLOAT", "tensorShape": {"dim": [{"size": "6"}, {"size": "32"}]}}}, "dtype": {"type": "DT_FLOAT"}}}, {"name": "StatefulPartitionedCall/heavy_chain_align_airr/Reshape/shape", "op": "Const", "attr": {"value": {"tensor": {"dtype": "DT_INT32", "tensorShape": {"dim": [{"size": "2"}]}}}, "dtype": {"type": "DT_INT32"}}}, {"name": "StatefulPartitionedCall/heavy_chain_align_airr/token_and_position_embedding/embedding/embedding_lookup/axis", "op": "Const", "attr": {"value": {"tensor": {"dtype": "DT_INT32", "tensorShape": {}}}, "dtype": {"type": "DT_INT32"}}}, {"name": "StatefulPartitionedCall/heavy_chain_align_airr/token_and_position_embedding/embedding_1/embedding_lookup", "op": "Const", "attr": {"value": {"tensor": {"dtype": "DT_FLOAT", "tensorShape": {"dim": [{"size": "512"}, {"size": "32"}]}}}, "dtype": {"type": "DT_FLOAT"}}}, {"name": "StatefulPartitionedCall/heavy_chain_align_airr/conv_residual_feature_extraction_block/conv1d_15/Conv1D/ExpandDims/dim", "op": "Const", "attr": {"value": {"tensor": {"dtype": "DT_INT32", "tensorShape": {}}}, "dtype": {"type": "DT_INT32"}}}, {"name": "StatefulPartitionedCall/heavy_chain_align_airr/conv_residual_feature_extraction_block/conv1d_15/Conv1D/ExpandDims_1", "op": "Const", "attr": {"value": {"tensor": {"dtype": "DT_FLOAT", "tensorShape": {"dim": [{"size": "1"}, {"size": "5"}, {"size": "32"}, {"size": "64"}]}}}, "dtype": {"type": "DT_FLOAT"}}}, {"name": "StatefulPartitionedCall/heavy_chain_align_airr/conv_residual_feature_extraction_block/conv1d_15/BiasAdd/ReadVariableOp", "op": "Const", "attr": {"value": {"tensor": {"dtype": "DT_FLOAT", "tensorShape": {"dim": [{"size": "64"}]}}}, "dtype": {"type": "DT_FLOAT"}}}, {"name": "StatefulPartitionedCall/heavy_chain_align_airr/conv_residual_feature_extraction_block/max_pooling1d_5/ExpandDims/dim", "op": "Const", "attr": {"value": {"tensor": {"dtype": "DT_INT32", "tensorShape": {}}}, "dtype": {"type": "DT_INT32"}}}, {"name": "StatefulPartitionedCall/heavy_chain_align_airr/conv_residual_feature_extraction_block/max_pooling1d_5/ExpandDims_1/dim", "op": "Const", "attr": {"value": {"tensor": {"dtype": "DT_INT32", "tensorShape": {}}}, "dtype": {"type": "DT_INT32"}}}, {"name": "StatefulPartitionedCall/heavy_chain_align_airr/conv_residual_feature_extraction_block/max_pooling1d_6/ExpandDims/dim", "op": "Const", "attr": {"value": {"tensor": {"dtype": "DT_INT32", "tensorShape": {}}}, "dtype": {"type": "DT_INT32"}}}, {"name": "StatefulPartitionedCall/heavy_chain_align_airr/conv_residual_feature_extraction_block/max_pooling1d_7/ExpandDims/dim", "op": "Const", "attr": {"value": {"tensor": {"dtype": "DT_INT32", "tensorShape": {}}}, "dtype": {"type": "DT_INT32"}}}, {"name": "StatefulPartitionedCall/heavy_chain_align_airr/conv_residual_feature_extraction_block/max_pooling1d_8/ExpandDims/dim", "op": "Const", "attr": {"value": {"tensor": {"dtype": "DT_INT32", "tensorShape": {}}}, "dtype": {"type": "DT_INT32"}}}, {"name": "StatefulPartitionedCall/heavy_chain_align_airr/conv_residual_feature_extraction_block/max_pooling1d_9/ExpandDims/dim", "op": "Const", "attr": {"value": {"tensor": {"dtype": "DT_INT32", "tensorShape": {}}}, "dtype": {"type": "DT_INT32"}}}, {"name": "StatefulPartitionedCall/heavy_chain_align_airr/conv_residual_feature_extraction_block/flatten/Const", "op": "Const", "attr": {"value": {"tensor": {"dtype": "DT_INT32", "tensorShape": {"dim": [{"size": "2"}]}}}, "dtype": {"type": "DT_INT32"}}}, {"name": "StatefulPartitionedCall/heavy_chain_align_airr/dense/MatMul/ReadVariableOp", "op": "Const", "attr": {"value": {"tensor": {"dtype": "DT_FLOAT", "tensorShape": {"dim": [{"size": "512"}, {"size": "128"}]}}}, "dtype": {"type": "DT_FLOAT"}}}, {"name": "StatefulPartitionedCall/heavy_chain_align_airr/dense/BiasAdd/ReadVariableOp", "op": "Const", "attr": {"value": {"tensor": {"dtype": "DT_FLOAT", "tensorShape": {"dim": [{"size": "128"}]}}}, "dtype": {"type": "DT_FLOAT"}}}, {"name": "StatefulPartitionedCall/heavy_chain_align_airr/v_segment/MatMul/ReadVariableOp", "op": "Const", "attr": {"value": {"tensor": {"dtype": "DT_FLOAT", "tensorShape": {"dim": [{"size": "128"}, {"size": "512"}]}}}, "dtype": {"type": "DT_FLOAT"}}}, {"name": "StatefulPartitionedCall/heavy_chain_align_airr/v_segment/BiasAdd/ReadVariableOp", "op": "Const", "attr": {"value": {"tensor": {"dtype": "DT_FLOAT", "tensorShape": {"dim": [{"size": "512"}]}}}, "dtype": {"type": "DT_FLOAT"}}}, {"name": "tokenized_sequence", "op": "Placeholder", "attr": {"shape": {"shape": {"dim": [{"size": "-1"}, {"size": "512"}]}}, "dtype": {"type": "DT_INT32"}}}, {"name": "StatefulPartitionedCall/heavy_chain_align_airr/Reshape", "op": "Reshape", "input": ["tokenized_sequence", "StatefulPartitionedCall/heavy_chain_align_airr/Reshape/shape"], "attr": {"T": {"type": "DT_INT32"}, "Tshape": {"type": "DT_INT32"}}}, {"name": "StatefulPartitionedCall/heavy_chain_align_airr/Cast", "op": "Cast", "input": ["StatefulPartitionedCall/heavy_chain_align_airr/Reshape"], "attr": {"SrcT": {"type": "DT_INT32"}, "DstT": {"type": "DT_FLOAT"}, "Truncate": {"b": false}}}, {"name": "StatefulPartitionedCall/heavy_chain_align_airr/token_and_position_embedding/embedding/Cast", "op": "Cast", "input": ["StatefulPartitionedCall/heavy_chain_align_airr/Cast"], "attr": {"SrcT": {"type": "DT_FLOAT"}, "DstT": {"type": "DT_INT32"}, "Truncate": {"b": false}}}, {"name": "StatefulPartitionedCall/heavy_chain_align_airr/token_and_position_embedding/embedding/embedding_lookup", "op": "GatherV2", "input": ["unknown_0", "StatefulPartitionedCall/heavy_chain_align_airr/token_and_position_embedding/embedding/Cast", "StatefulPartitionedCall/heavy_chain_align_airr/token_and_position_embedding/embedding/embedding_lookup/axis"], "attr": {"Tparams": {"type": "DT_FLOAT"}, "Taxis": {"type": "DT_INT32"}, "Tindices": {"type": "DT_INT32"}, "batch_dims": {"i": "0"}, "_has_manual_control_dependencies": {"b": true}}}, {"name": "StatefulPartitionedCall/heavy_chain_align_airr/token_and_position_embedding/add", "op": "AddV2", "input": ["StatefulPartitionedCall/heavy_chain_align_airr/token_and_position_embedding/embedding/embedding_lookup", "StatefulPartitionedCall/heavy_chain_align_airr/token_and_position_embedding/embedding_1/embedding_lookup"], "attr": {"T": {"type": "DT_FLOAT"}}}, {"name": "StatefulPartitionedCall/heavy_chain_align_airr/conv_residual_feature_extraction_block/conv1d_and__batch_norm/conv1d/Conv1D/ExpandDims", "op": "ExpandDims", "input": ["StatefulPartitionedCall/heavy_chain_align_airr/token_and_position_embedding/add", "StatefulPartitionedCall/heavy_chain_align_airr/conv_residual_feature_extraction_block/conv1d_and__batch_norm/conv1d/Conv1D/ExpandDims/dim"], "attr": {"Tdim": {"type": "DT_INT32"}, "T": {"type": "DT_FLOAT"}}}, {"name": "StatefulPartitionedCall/heavy_chain_align_airr/conv_residual_feature_extraction_block/conv1d_15/Conv1D/ExpandDims", "op": "ExpandDims", "input": ["StatefulPartitionedCall/heavy_chain_align_airr/token_and_position_embedding/add", "StatefulPartitionedCall/heavy_chain_align_airr/conv_residual_feature_extraction_block/conv1d_15/Conv1D/ExpandDims/dim"], "attr": {"Tdim": {"type": "DT_INT32"}, "T": {"type": "DT_FLOAT"}}}, {"name": "StatefulPartitionedCall/heavy_chain_align_airr/conv_residual_feature_extraction_block/conv1d_and__batch_norm/conv1d/Conv1D", "op": "_FusedConv2D", "input": ["StatefulPartitionedCall/heavy_chain_align_airr/conv_residual_feature_extraction_block/conv1d_and__batch_norm/conv1d/Conv1D/ExpandDims", "StatefulPartitionedCall/heavy_chain_align_airr/conv_residual_feature_extraction_block/conv1d_and__batch_norm/conv1d/Conv1D/ExpandDims_1", "StatefulPartitionedCall/heavy_chain_align_airr/conv_residual_feature_extraction_block/conv1d_and__batch_norm/conv1d/BiasAdd/ReadVariableOp"], "device": "/device:CPU:0", "attr": {"num_host_args": {"i": "0"}, "data_format": {"s": "TkhXQw=="}, "filter_format": {"s": "SFdJTw=="}, "fused_ops": {"list": {"s": ["Qmlhc0FkZA=="]}}, "num_args": {"i": "1"}, "strides": {"list": {"i": ["1", "1", "1", "1"]}}, "TArgs": {"list": {"type": ["DT_FLOAT"]}}, "padding": {"s": "U0FNRQ=="}, "use_cudnn_on_gpu": {"b": true}, "leakyrelu_alpha": {"f": 0.2}, "epsilon": {"f": 0.0}, "T": {"type": "DT_FLOAT"}, "explicit_paddings": {"list": {}}, "dilations": {"list": {"i": ["1", "1", "1", "1"]}}}}, {"name": "StatefulPartitionedCall/heavy_chain_align_airr/conv_residual_feature_extraction_block/conv1d_15/Conv1D", "op": "_FusedConv2D", "input": ["StatefulPartitionedCall/heavy_chain_align_airr/conv_residual_feature_extraction_block/conv1d_15/Conv1D/ExpandDims", "StatefulPartitionedCall/heavy_chain_align_airr/conv_residual_feature_extraction_block/conv1d_15/Conv1D/ExpandDims_1", "StatefulPartitionedCall/heavy_chain_align_airr/conv_residual_feature_extraction_block/conv1d_15/BiasAdd/ReadVariableOp"], "device": "/device:CPU:0", "attr": {"num_host_args": {"i": "0"}, "data_format": {"s": "TkhXQw=="}, "filter_format": {"s": "SFdJTw=="}, "fused_ops": {"list": {"s": ["Qmlhc0FkZA=="]}}, "num_args": {"i": "1"}, "strides": {"list": {"i": ["1", "1", "1", "1"]}}, "TArgs": {"list": {"type": ["DT_FLOAT"]}}, "padding": {"s": "U0FNRQ=="}, "use_cudnn_on_gpu": {"b": true}, "leakyrelu_alpha": {"f": 0.2}, "epsilon": {"f": 0.0}, "T": {"type": "DT_FLOAT"}, "explicit_paddings": {"list": {}}, "dilations": {"list": {"i": ["1", "1", "1", "1"]}}}}, {"name": "StatefulPartitionedCall/heavy_chain_align_airr/conv_residual_feature_extraction_block/conv1d_and__batch_norm/conv1d/BiasAdd", "op": "Squeeze", "input": ["StatefulPartitionedCall/heavy_chain_align_airr/conv_residual_feature_extraction_block/conv1d_and__batch_norm/conv1d/Conv1D"], "attr": {"T": {"type": "DT_FLOAT"}, "squeeze_dims": {"list": {"i": ["-3"]}}}}, {"name": "StatefulPartitionedCall/heavy_chain_align_airr/conv_residual_feature_extraction_block/conv1d_15/BiasAdd", "op": "Squeeze", "input": ["StatefulPartitionedCall/heavy_chain_align_airr/conv_residual_feature_extraction_block/conv1d_15/Conv1D"], "attr": {"T": {"type": "DT_FLOAT"}, "squeeze_dims": {"list": {"i": ["-3"]}}}}, {"name": "StatefulPartitionedCall/heavy_chain_align_airr/conv_residual_feature_extraction_block/conv1d_and__batch_norm/conv1d_1/Conv1D/ExpandDims", "op": "ExpandDims", "input": ["StatefulPartitionedCall/heavy_chain_align_airr/conv_residual_feature_extraction_block/conv1d_and__batch_norm/conv1d/BiasAdd", "StatefulPartitionedCall/heavy_chain_align_airr/conv_residual_feature_extraction_block/conv1d_and__batch_norm/conv1d_1/Conv1D/ExpandDims/dim"], "attr": {"Tdim": {"type": "DT_INT32"}, "T": {"type": "DT_FLOAT"}}}, {"name": "StatefulPartitionedCall/heavy_chain_align_airr/conv_residual_feature_extraction_block/max_pooling1d_5/ExpandDims", "op": "ExpandDims", "input": ["StatefulPartitionedCall/heavy_chain_align_airr/conv_residual_feature_extraction_block/conv1d_15/BiasAdd", "StatefulPartitionedCall/heavy_chain_align_airr/conv_residual_feature_extraction_block/max_pooling1d_5/ExpandDims/dim"], "attr": {"Tdim": {"type": "DT_INT32"}, "T": {"type": "DT_FLOAT"}}}, {"name": "StatefulPartitionedCall/heavy_chain_align_airr/conv_residual_feature_extraction_block/conv1d_and__batch_norm/conv1d_1/Conv1D", "op": "_FusedConv2D", "input": ["StatefulPartitionedCall/heavy_chain_align_airr/conv_residual_feature_extraction_block/conv1d_and__batch_norm/conv1d_1/Conv1D/ExpandDims", "StatefulPartitionedCall/heavy_chain_align_airr/conv_residual_feature_extraction_block/conv1d_and__batch_norm/conv1d_1/Conv1D/ExpandDims_1", "StatefulPartitionedCall/heavy_chain_align_airr/conv_residual_feature_extraction_block/conv1d_and__batch_norm/conv1d_1/BiasAdd/ReadVariableOp"], "device": "/device:CPU:0", "attr": {"num_host_args": {"i": "0"}, "data_format": {"s": "TkhXQw=="}, "filter_format": {"s": "SFdJTw=="}, "strides": {"list": {"i": ["1", "1", "1", "1"]}}, "num_args": {"i": "1"}, "fused_ops": {"list": {"s": ["Qmlhc0FkZA=="]}}, "TArgs": {"list": {"type": ["DT_FLOAT"]}}, "padding": {"s": "U0FNRQ=="}, "use_cudnn_on_gpu": {"b": true}, "leakyrelu_alpha": {"f": 0.2}, "epsilon": {"f": 0.0}, "T": {"type": "DT_FLOAT"}, "explicit_paddings": {"list": {}}, "dilations": {"list": {"i": ["1", "1", "1", "1"]}}}}, {"name": "StatefulPartitionedCall/heavy_chain_align_airr/conv_residual_feature_extraction_block/max_pooling1d_5/MaxPool", "op": "MaxPool", "input": ["StatefulPartitionedCall/heavy_chain_align_airr/conv_residual_feature_extraction_block/max_pooling1d_5/ExpandDims"], "attr": {"ksize": {"list": {"i": ["1", "2", "1", "1"]}}, "data_format": {"s": "TkhXQw=="}, "T": {"type": "DT_FLOAT"}, "explicit_paddings": {"list": {}}, "padding": {"s": "VkFMSUQ="}, "strides": {"list": {"i": ["1", "2", "1", "1"]}}}}, {"name": "StatefulPartitionedCall/heavy_chain_align_airr/conv_residual_feature_extraction_block/conv1d_and__batch_norm/conv1d_1/BiasAdd", "op": "Squeeze", "input": ["StatefulPartitionedCall/heavy_chain_align_airr/conv_residual_feature_extraction_block/conv1d_and__batch_norm/conv1d_1/Conv1D"], "attr": {"T": {"type": "DT_FLOAT"}, "squeeze_dims": {"list": {"i": ["-3"]}}}}, {"name": "StatefulPartitionedCall/heavy_chain_align_airr/conv_residual_feature_extraction_block/max_pooling1d_5/Squeeze", "op": "Squeeze", "input": ["StatefulPartitionedCall/heavy_chain_align_airr/conv_residual_feature_extraction_block/max_pooling1d_5/MaxPool"], "attr": {"T": {"type": "DT_FLOAT"}, "squeeze_dims": {"list": {"i": ["2"]}}}}, {"name": "StatefulPartitionedCall/heavy_chain_align_airr/conv_residual_feature_extraction_block/conv1d_and__batch_norm/conv1d_2/Conv1D/ExpandDims", "op": "ExpandDims", "input": ["StatefulPartitionedCall/heavy_chain_align_airr/conv_residual_feature_extraction_block/conv1d_and__batch_norm/conv1d_1/BiasAdd", "StatefulPartitionedCall/heavy_chain_align_airr/conv_residual_feature_extraction_block/conv1d_and__batch_norm/conv1d_2/Conv1D/ExpandDims/dim"], "attr": {"Tdim": {"type": "DT_INT32"}, "T": {"type": "DT_FLOAT"}}}, {"name": "StatefulPartitionedCall/heavy_chain_align_airr/conv_residual_feature_extraction_block/conv1d_and__batch_norm/conv1d_2/Conv1D", "op": "_FusedConv2D", "input": ["StatefulPartitionedCall/heavy_chain_align_airr/conv_residual_feature_extraction_block/conv1d_and__batch_norm/conv1d_2/Conv1D/ExpandDims", "StatefulPartitionedCall/heavy_chain_align_airr/conv_residual_feature_extraction_block/conv1d_and__batch_norm/conv1d_2/Conv1D/ExpandDims_1", "StatefulPartitionedCall/heavy_chain_align_airr/conv_residual_feature_extraction_block/conv1d_and__batch_norm/conv1d_2/BiasAdd/ReadVariableOp"], "device": "/device:CPU:0", "attr": {"num_host_args": {"i": "0"}, "data_format": {"s": "TkhXQw=="}, "filter_format": {"s": "SFdJTw=="}, "fused_ops": {"list": {"s": ["Qmlhc0FkZA=="]}}, "num_args": {"i": "1"}, "strides": {"list": {"i": ["1", "1", "1", "1"]}}, "TArgs": {"list": {"type": ["DT_FLOAT"]}}, "padding": {"s": "U0FNRQ=="}, "use_cudnn_on_gpu": {"b": true}, "leakyrelu_alpha": {"f": 0.2}, "epsilon": {"f": 0.0}, "T": {"type": "DT_FLOAT"}, "explicit_paddings": {"list": {}}, "dilations": {"list": {"i": ["1", "1", "1", "1"]}}}}, {"name": "StatefulPartitionedCall/heavy_chain_align_airr/conv_residual_feature_extraction_block/conv1d_and__batch_norm/conv1d_2/BiasAdd", "op": "Squeeze", "input": ["StatefulPartitionedCall/heavy_chain_align_airr/conv_residual_feature_extraction_block/conv1d_and__batch_norm/conv1d_2/Conv1D"], "attr": {"T": {"type": "DT_FLOAT"}, "squeeze_dims": {"list": {"i": ["-3"]}}}}, {"name": "StatefulPartitionedCall/heavy_chain_align_airr/conv_residual_feature_extraction_block/conv1d_and__batch_norm/batch_normalization/batchnorm/mul_1", "op": "Mul", "input": ["StatefulPartitionedCall/heavy_chain_align_airr/conv_residual_feature_extraction_block/conv1d_and__batch_norm/conv1d_2/BiasAdd", "StatefulPartitionedCall/heavy_chain_align_airr/conv_residual_feature_extraction_block/conv1d_and__batch_norm/batch_normalization/batchnorm/mul"], "attr": {"T": {"type": "DT_FLOAT"}}}, {"name": "StatefulPartitionedCall/heavy_chain_align_airr/conv_residual_feature_extraction_block/conv1d_and__batch_norm/batch_normalization/batchnorm/add_1", "op": "AddV2", "input": ["StatefulPartitionedCall/heavy_chain_align_airr/conv_residual_feature_extraction_block/conv1d_and__batch_norm/batch_normalization/batchnorm/mul_1", "StatefulPartitionedCall/heavy_chain_align_airr/conv_residual_feature_extraction_block/conv1d_and__batch_norm/batch_normalization/batchnorm/sub"], "attr": {"T": {"type": "DT_FLOAT"}}}, {"name": "StatefulPartitionedCall/heavy_chain_align_airr/conv_residual_feature_extraction_block/conv1d_and__batch_norm/leaky_re_lu/LeakyRelu", "op": "LeakyRelu", "input": ["StatefulPartitionedCall/heavy_chain_align_airr/conv_residual_feature_extraction_block/conv1d_and__batch_norm/batch_normalization/batchnorm/add_1"], "attr": {"alpha": {"f": 0.3}, "T": {"type": "DT_FLOAT"}}}, {"name": "StatefulPartitionedCall/heavy_chain_align_airr/conv_residual_feature_extraction_block/conv1d_and__batch_norm/max_pooling1d/ExpandDims", "op": "ExpandDims", "input": ["StatefulPartitionedCall/heavy_chain_align_airr/conv_residual_feature_extraction_block/conv1d_and__batch_norm/leaky_re_lu/LeakyRelu", "StatefulPartitionedCall/heavy_chain_align_airr/conv_residual_feature_extraction_block/conv1d_and__batch_norm/max_pooling1d/ExpandDims/dim"], "attr": {"Tdim": {"type": "DT_INT32"}, "T": {"type": "DT_FLOAT"}}}, {"name": "StatefulPartitionedCall/heavy_chain_align_airr/conv_residual_feature_extraction_block/conv1d_and__batch_norm/max_pooling1d/MaxPool", "op": "MaxPool", "input": ["StatefulPartitionedCall/heavy_chain_align_airr/conv_residual_feature_extraction_block/conv1d_and__batch_norm/max_pooling1d/ExpandDims"], "attr": {"ksize": {"list": {"i": ["1", "2", "1", "1"]}}, "data_format": {"s": "TkhXQw=="}, "T": {"type": "DT_FLOAT"}, "explicit_paddings": {"list": {}}, "padding": {"s": "VkFMSUQ="}, "strides": {"list": {"i": ["1", "2", "1", "1"]}}}}, {"name": "StatefulPartitionedCall/heavy_chain_align_airr/conv_residual_feature_extraction_block/conv1d_and__batch_norm/max_pooling1d/Squeeze", "op": "Squeeze", "input": ["StatefulPartitionedCall/heavy_chain_align_airr/conv_residual_feature_extraction_block/conv1d_and__batch_norm/max_pooling1d/MaxPool"], "attr": {"T": {"type": "DT_FLOAT"}, "squeeze_dims": {"list": {"i": ["2"]}}}}, {"name": "StatefulPartitionedCall/heavy_chain_align_airr/conv_residual_feature_extraction_block/add/add", "op": "AddV2", "input": ["StatefulPartitionedCall/heavy_chain_align_airr/conv_residual_feature_extraction_block/conv1d_and__batch_norm/max_pooling1d/Squeeze", "StatefulPartitionedCall/heavy_chain_align_airr/conv_residual_feature_extraction_block/max_pooling1d_5/Squeeze"], "attr": {"T": {"type": "DT_FLOAT"}}}, {"name": "StatefulPartitionedCall/heavy_chain_align_airr/conv_residual_feature_extraction_block/leaky_re_lu_5/LeakyRelu", "op": "LeakyRelu", "input": ["StatefulPartitionedCall/heavy_chain_align_airr/conv_residual_feature_extraction_block/add/add"], "attr": {"alpha": {"f": 0.3}, "T": {"type": "DT_FLOAT"}}}, {"name": "StatefulPartitionedCall/heavy_chain_align_airr/conv_residual_feature_extraction_block/max_pooling1d_5/ExpandDims_1", "op": "ExpandDims", "input": ["StatefulPartitionedCall/heavy_chain_align_airr/conv_residual_feature_extraction_block/leaky_re_lu_5/LeakyRelu", "StatefulPartitionedCall/heavy_chain_align_airr/conv_residual_feature_extraction_block/max_pooling1d_5/ExpandDims_1/dim"], "attr": {"Tdim": {"type": "DT_INT32"}, "T": {"type": "DT_FLOAT"}}}, {"name": "StatefulPartitionedCall/heavy_chain_align_airr/conv_residual_feature_extraction_block/max_pooling1d_5/MaxPool_1", "op": "MaxPool", "input": ["StatefulPartitionedCall/heavy_chain_align_airr/conv_residual_feature_extraction_block/max_pooling1d_5/ExpandDims_1"], "attr": {"ksize": {"list": {"i": ["1", "2", "1", "1"]}}, "data_format": {"s": "TkhXQw=="}, "T": {"type": "DT_FLOAT"}, "explicit_paddings": {"list": {}}, "padding": {"s": "VkFMSUQ="}, "strides": {"list": {"i": ["1", "2", "1", "1"]}}}}, {"name": "StatefulPartitionedCall/heavy_chain_align_airr/conv_residual_feature_extraction_block/max_pooling1d_5/Squeeze_1", "op": "Squeeze", "input": ["StatefulPartitionedCall/heavy_chain_align_airr/conv_residual_feature_extraction_block/max_pooling1d_5/MaxPool_1"], "attr": {"T": {"type": "DT_FLOAT"}, "squeeze_dims": {"list": {"i": ["2"]}}}}, {"name": "StatefulPartitionedCall/heavy_chain_align_airr/conv_residual_feature_extraction_block/conv1d_and__batch_norm_1/conv1d_3/Conv1D/ExpandDims", "op": "ExpandDims", "input": ["StatefulPartitionedCall/heavy_chain_align_airr/conv_residual_feature_extraction_block/max_pooling1d_5/Squeeze_1", "StatefulPartitionedCall/heavy_chain_align_airr/conv_residual_feature_extraction_block/conv1d_and__batch_norm_1/conv1d_3/Conv1D/ExpandDims/dim"], "attr": {"Tdim": {"type": "DT_INT32"}, "T": {"type": "DT_FLOAT"}}}, {"name": "StatefulPartitionedCall/heavy_chain_align_airr/conv_residual_feature_extraction_block/max_pooling1d_6/ExpandDims", "op": "ExpandDims", "input": ["StatefulPartitionedCall/heavy_chain_align_airr/conv_residual_feature_extraction_block/max_pooling1d_5/Squeeze_1", "StatefulPartitionedCall/heavy_chain_align_airr/conv_residual_feature_extraction_block/max_pooling1d_6/ExpandDims/dim"], "attr": {"Tdim": {"type": "DT_INT32"}, "T": {"type": "DT_FLOAT"}}}, {"name": "StatefulPartitionedCall/heavy_chain_align_airr/conv_residual_feature_extraction_block/conv1d_and__batch_norm_1/conv1d_3/Conv1D", "op": "_FusedConv2D", "input": ["StatefulPartitionedCall/heavy_chain_align_airr/conv_residual_feature_extraction_block/conv1d_and__batch_norm_1/conv1d_3/Conv1D/ExpandDims", "StatefulPartitionedCall/heavy_chain_align_airr/conv_residual_feature_extraction_block/conv1d_and__batch_norm_1/conv1d_3/Conv1D/ExpandDims_1", "StatefulPartitionedCall/heavy_chain_align_airr/conv_residual_feature_extraction_block/conv1d_and__batch_norm_1/conv1d_3/BiasAdd/ReadVariableOp"], "device": "/device:CPU:0", "attr": {"num_host_args": {"i": "0"}, "data_format": {"s": "TkhXQw=="}, "filter_format": {"s": "SFdJTw=="}, "fused_ops": {"list": {"s": ["Qmlhc0FkZA=="]}}, "num_args": {"i": "1"}, "strides": {"list": {"i": ["1", "1", "1", "1"]}}, "TArgs": {"list": {"type": ["DT_FLOAT"]}}, "padding": {"s": "U0FNRQ=="}, "use_cudnn_on_gpu": {"b": true}, "leakyrelu_alpha": {"f": 0.2}, "epsilon": {"f": 0.0}, "T": {"type": "DT_FLOAT"}, "explicit_paddings": {"list": {}}, "dilations": {"list": {"i": ["1", "1", "1", "1"]}}}}, {"name": "StatefulPartitionedCall/heavy_chain_align_airr/conv_residual_feature_extraction_block/max_pooling1d_6/MaxPool", "op": "MaxPool", "input": ["StatefulPartitionedCall/heavy_chain_align_airr/conv_residual_feature_extraction_block/max_pooling1d_6/ExpandDims"], "attr": {"ksize": {"list": {"i": ["1", "2", "1", "1"]}}, "data_format": {"s": "TkhXQw=="}, "T": {"type": "DT_FLOAT"}, "explicit_paddings": {"list": {}}, "padding": {"s": "VkFMSUQ="}, "strides": {"list": {"i": ["1", "2", "1", "1"]}}}}, {"name": "StatefulPartitionedCall/heavy_chain_align_airr/conv_residual_feature_extraction_block/conv1d_and__batch_norm_1/conv1d_3/BiasAdd", "op": "Squeeze", "input": ["StatefulPartitionedCall/heavy_chain_align_airr/conv_residual_feature_extraction_block/conv1d_and__batch_norm_1/conv1d_3/Conv1D"], "attr": {"T": {"type": "DT_FLOAT"}, "squeeze_dims": {"list": {"i": ["-3"]}}}}, {"name": "StatefulPartitionedCall/heavy_chain_align_airr/conv_residual_feature_extraction_block/max_pooling1d_6/Squeeze", "op": "Squeeze", "input": ["StatefulPartitionedCall/heavy_chain_align_airr/conv_residual_feature_extraction_block/max_pooling1d_6/MaxPool"], "attr": {"T": {"type": "DT_FLOAT"}, "squeeze_dims": {"list": {"i": ["2"]}}}}, {"name": "StatefulPartitionedCall/heavy_chain_align_airr/conv_residual_feature_extraction_block/conv1d_and__batch_norm_1/conv1d_4/Conv1D/ExpandDims", "op": "ExpandDims", "input": ["StatefulPartitionedCall/heavy_chain_align_airr/conv_residual_feature_extraction_block/conv1d_and__batch_norm_1/conv1d_3/BiasAdd", "StatefulPartitionedCall/heavy_chain_align_airr/conv_residual_feature_extraction_block/conv1d_and__batch_norm_1/conv1d_4/Conv1D/ExpandDims/dim"], "attr": {"Tdim": {"type": "DT_INT32"}, "T": {"type": "DT_FLOAT"}}}, {"name": "StatefulPartitionedCall/heavy_chain_align_airr/conv_residual_feature_extraction_block/conv1d_and__batch_norm_1/conv1d_4/Conv1D", "op": "_FusedConv2D", "input": ["StatefulPartitionedCall/heavy_chain_align_airr/conv_residual_feature_extraction_block/conv1d_and__batch_norm_1/conv1d_4/Conv1D/ExpandDims", "StatefulPartitionedCall/heavy_chain_align_airr/conv_residual_feature_extraction_block/conv1d_and__batch_norm_1/conv1d_4/Conv1D/ExpandDims_1", "StatefulPartitionedCall/heavy_chain_align_airr/conv_residual_feature_extraction_block/conv1d_and__batch_norm_1/conv1d_4/BiasAdd/ReadVariableOp"], "device": "/device:CPU:0", "attr": {"num_host_args": {"i": "0"}, "data_format": {"s": "TkhXQw=="}, "filter_format": {"s": "SFdJTw=="}, "fused_ops": {"list": {"s": ["Qmlhc0FkZA=="]}}, "num_args": {"i": "1"}, "strides": {"list": {"i": ["1", "1", "1", "1"]}}, "TArgs": {"list": {"type": ["DT_FLOAT"]}}, "padding": {"s": "U0FNRQ=="}, "use_cudnn_on_gpu": {"b": true}, "leakyrelu_alpha": {"f": 0.2}, "epsilon": {"f": 0.0}, "T": {"type": "DT_FLOAT"}, "explicit_paddings": {"list": {}}, "dilations": {"list": {"i": ["1", "1", "1", "1"]}}}}, {"name": "StatefulPartitionedCall/heavy_chain_align_airr/conv_residual_feature_extraction_block/conv1d_and__batch_norm_1/conv1d_4/BiasAdd", "op": "Squeeze", "input": ["StatefulPartitionedCall/heavy_chain_align_airr/conv_residual_feature_extraction_block/conv1d_and__batch_norm_1/conv1d_4/Conv1D"], "attr": {"T": {"type": "DT_FLOAT"}, "squeeze_dims": {"list": {"i": ["-3"]}}}}, {"name": "StatefulPartitionedCall/heavy_chain_align_airr/conv_residual_feature_extraction_block/conv1d_and__batch_norm_1/conv1d_5/Conv1D/ExpandDims", "op": "ExpandDims", "input": ["StatefulPartitionedCall/heavy_chain_align_airr/conv_residual_feature_extraction_block/conv1d_and__batch_norm_1/conv1d_4/BiasAdd", "StatefulPartitionedCall/heavy_chain_align_airr/conv_residual_feature_extraction_block/conv1d_and__batch_norm_1/conv1d_5/Conv1D/ExpandDims/dim"], "attr": {"Tdim": {"type": "DT_INT32"}, "T": {"type": "DT_FLOAT"}}}, {"name": "StatefulPartitionedCall/heavy_chain_align_airr/conv_residual_feature_extraction_block/conv1d_and__batch_norm_1/conv1d_5/Conv1D", "op": "_FusedConv2D", "input": ["StatefulPartitionedCall/heavy_chain_align_airr/conv_residual_feature_extraction_block/conv1d_and__batch_norm_1/conv1d_5/Conv1D/ExpandDims", "StatefulPartitionedCall/heavy_chain_align_airr/conv_residual_feature_extraction_block/conv1d_and__batch_norm_1/conv1d_5/Conv1D/ExpandDims_1", "StatefulPartitionedCall/heavy_chain_align_airr/conv_residual_feature_extraction_block/conv1d_and__batch_norm_1/conv1d_5/BiasAdd/ReadVariableOp"], "device": "/device:CPU:0", "attr": {"num_host_args": {"i": "0"}, "data_format": {"s": "TkhXQw=="}, "filter_format": {"s": "SFdJTw=="}, "fused_ops": {"list": {"s": ["Qmlhc0FkZA=="]}}, "num_args": {"i": "1"}, "strides": {"list": {"i": ["1", "1", "1", "1"]}}, "TArgs": {"list": {"type": ["DT_FLOAT"]}}, "padding": {"s": "U0FNRQ=="}, "use_cudnn_on_gpu": {"b": true}, "leakyrelu_alpha": {"f": 0.2}, "epsilon": {"f": 0.0}, "T": {"type": "DT_FLOAT"}, "explicit_paddings": {"list": {}}, "dilations": {"list": {"i": ["1", "1", "1", "1"]}}}}, {"name": "StatefulPartitionedCall/heavy_chain_align_airr/conv_residual_feature_extraction_block/conv1d_and__batch_norm_1/conv1d_5/BiasAdd", "op": "Squeeze", "input": ["StatefulPartitionedCall/heavy_chain_align_airr/conv_residual_feature_extraction_block/conv1d_and__batch_norm_1/conv1d_5/Conv1D"], "attr": {"T": {"type": "DT_FLOAT"}, "squeeze_dims": {"list": {"i": ["-3"]}}}}, {"name": "StatefulPartitionedCall/heavy_chain_align_airr/conv_residual_feature_extraction_block/conv1d_and__batch_norm_1/batch_normalization_1/batchnorm/mul_1", "op": "Mul", "input": ["StatefulPartitionedCall/heavy_chain_align_airr/conv_residual_feature_extraction_block/conv1d_and__batch_norm_1/conv1d_5/BiasAdd", "StatefulPartitionedCall/heavy_chain_align_airr/conv_residual_feature_extraction_block/conv1d_and__batch_norm_1/batch_normalization_1/batchnorm/mul"], "attr": {"T": {"type": "DT_FLOAT"}}}, {"name": "StatefulPartitionedCall/heavy_chain_align_airr/conv_residual_feature_extraction_block/conv1d_and__batch_norm_1/batch_normalization_1/batchnorm/add_1", "op": "AddV2", "input": ["StatefulPartitionedCall/heavy_chain_align_airr/conv_residual_feature_extraction_block/conv1d_and__batch_norm_1/batch_normalization_1/batchnorm/mul_1", "StatefulPartitionedCall/heavy_chain_align_airr/conv_residual_feature_extraction_block/conv1d_and__batch_norm_1/batch_normalization_1/batchnorm/sub"], "attr": {"T": {"type": "DT_FLOAT"}}}, {"name": "StatefulPartitionedCall/heavy_chain_align_airr/conv_residual_feature_extraction_block/conv1d_and__batch_norm_1/leaky_re_lu_1/LeakyRelu", "op": "LeakyRelu", "input": ["StatefulPartitionedCall/heavy_chain_align_airr/conv_residual_feature_extraction_block/conv1d_and__batch_norm_1/batch_normalization_1/batchnorm/add_1"], "attr": {"alpha": {"f": 0.3}, "T": {"type": "DT_FLOAT"}}}, {"name": "StatefulPartitionedCall/heavy_chain_align_airr/conv_residual_feature_extraction_block/conv1d_and__batch_norm_1/max_pooling1d_1/ExpandDims", "op": "ExpandDims", "input": ["StatefulPartitionedCall/heavy_chain_align_airr/conv_residual_feature_extraction_block/conv1d_and__batch_norm_1/leaky_re_lu_1/LeakyRelu", "StatefulPartitionedCall/heavy_chain_align_airr/conv_residual_feature_extraction_block/conv1d_and__batch_norm_1/max_pooling1d_1/ExpandDims/dim"], "attr": {"Tdim": {"type": "DT_INT32"}, "T": {"type": "DT_FLOAT"}}}, {"name": "StatefulPartitionedCall/heavy_chain_align_airr/conv_residual_feature_extraction_block/conv1d_and__batch_norm_1/max_pooling1d_1/MaxPool", "op": "MaxPool", "input": ["StatefulPartitionedCall/heavy_chain_align_airr/conv_residual_feature_extraction_block/conv1d_and__batch_norm_1/max_pooling1d_1/ExpandDims"], "attr": {"padding": {"s": "VkFMSUQ="}, "data_format": {"s": "TkhXQw=="}, "T": {"type": "DT_FLOAT"}, "explicit_paddings": {"list": {}}, "ksize": {"list": {"i": ["1", "2", "1", "1"]}}, "strides": {"list": {"i": ["1", "2", "1", "1"]}}}}, {"name": "StatefulPartitionedCall/heavy_chain_align_airr/conv_residual_feature_extraction_block/conv1d_and__batch_norm_1/max_pooling1d_1/Squeeze", "op": "Squeeze", "input": ["StatefulPartitionedCall/heavy_chain_align_airr/conv_residual_feature_extraction_block/conv1d_and__batch_norm_1/max_pooling1d_1/MaxPool"], "attr": {"T": {"type": "DT_FLOAT"}, "squeeze_dims": {"list": {"i": ["2"]}}}}, {"name": "StatefulPartitionedCall/heavy_chain_align_airr/conv_residual_feature_extraction_block/add_1/add", "op": "AddV2", "input": ["StatefulPartitionedCall/heavy_chain_align_airr/conv_residual_feature_extraction_block/conv1d_and__batch_norm_1/max_pooling1d_1/Squeeze", "StatefulPartitionedCall/heavy_chain_align_airr/conv_residual_feature_extraction_block/max_pooling1d_6/Squeeze"], "attr": {"T": {"type": "DT_FLOAT"}}}, {"name": "StatefulPartitionedCall/heavy_chain_align_airr/conv_residual_feature_extraction_block/leaky_re_lu_6/LeakyRelu", "op": "LeakyRelu", "input": ["StatefulPartitionedCall/heavy_chain_align_airr/conv_residual_feature_extraction_block/add_1/add"], "attr": {"alpha": {"f": 0.3}, "T": {"type": "DT_FLOAT"}}}, {"name": "StatefulPartitionedCall/heavy_chain_align_airr/conv_residual_feature_extraction_block/conv1d_and__batch_norm_2/conv1d_6/Conv1D/ExpandDims", "op": "ExpandDims", "input": ["StatefulPartitionedCall/heavy_chain_align_airr/conv_residual_feature_extraction_block/leaky_re_lu_6/LeakyRelu", "StatefulPartitionedCall/heavy_chain_align_airr/conv_residual_feature_extraction_block/conv1d_and__batch_norm_2/conv1d_6/Conv1D/ExpandDims/dim"], "attr": {"Tdim": {"type": "DT_INT32"}, "T": {"type": "DT_FLOAT"}}}, {"name": "StatefulPartitionedCall/heavy_chain_align_airr/conv_residual_feature_extraction_block/max_pooling1d_7/ExpandDims", "op": "ExpandDims", "input": ["StatefulPartitionedCall/heavy_chain_align_airr/conv_residual_feature_extraction_block/leaky_re_lu_6/LeakyRelu", "StatefulPartitionedCall/heavy_chain_align_airr/conv_residual_feature_extraction_block/max_pooling1d_7/ExpandDims/dim"], "attr": {"Tdim": {"type": "DT_INT32"}, "T": {"type": "DT_FLOAT"}}}, {"name": "StatefulPartitionedCall/heavy_chain_align_airr/conv_residual_feature_extraction_block/conv1d_and__batch_norm_2/conv1d_6/Conv1D", "op": "_FusedConv2D", "input": ["StatefulPartitionedCall/heavy_chain_align_airr/conv_residual_feature_extraction_block/conv1d_and__batch_norm_2/conv1d_6/Conv1D/ExpandDims", "StatefulPartitionedCall/heavy_chain_align_airr/conv_residual_feature_extraction_block/conv1d_and__batch_norm_2/conv1d_6/Conv1D/ExpandDims_1", "StatefulPartitionedCall/heavy_chain_align_airr/conv_residual_feature_extraction_block/conv1d_and__batch_norm_2/conv1d_6/BiasAdd/ReadVariableOp"], "device": "/device:CPU:0", "attr": {"num_host_args": {"i": "0"}, "data_format": {"s": "TkhXQw=="}, "filter_format": {"s": "SFdJTw=="}, "fused_ops": {"list": {"s": ["Qmlhc0FkZA=="]}}, "num_args": {"i": "1"}, "strides": {"list": {"i": ["1", "1", "1", "1"]}}, "TArgs": {"list": {"type": ["DT_FLOAT"]}}, "padding": {"s": "U0FNRQ=="}, "use_cudnn_on_gpu": {"b": true}, "leakyrelu_alpha": {"f": 0.2}, "epsilon": {"f": 0.0}, "T": {"type": "DT_FLOAT"}, "explicit_paddings": {"list": {}}, "dilations": {"list": {"i": ["1", "1", "1", "1"]}}}}, {"name": "StatefulPartitionedCall/heavy_chain_align_airr/conv_residual_feature_extraction_block/max_pooling1d_7/MaxPool", "op": "MaxPool", "input": ["StatefulPartitionedCall/heavy_chain_align_airr/conv_residual_feature_extraction_block/max_pooling1d_7/ExpandDims"], "attr": {"ksize": {"list": {"i": ["1", "2", "1", "1"]}}, "data_format": {"s": "TkhXQw=="}, "T": {"type": "DT_FLOAT"}, "explicit_paddings": {"list": {}}, "padding": {"s": "VkFMSUQ="}, "strides": {"list": {"i": ["1", "2", "1", "1"]}}}}, {"name": "StatefulPartitionedCall/heavy_chain_align_airr/conv_residual_feature_extraction_block/conv1d_and__batch_norm_2/conv1d_6/BiasAdd", "op": "Squeeze", "input": ["StatefulPartitionedCall/heavy_chain_align_airr/conv_residual_feature_extraction_block/conv1d_and__batch_norm_2/conv1d_6/Conv1D"], "attr": {"T": {"type": "DT_FLOAT"}, "squeeze_dims": {"list": {"i": ["-3"]}}}}, {"name": "StatefulPartitionedCall/heavy_chain_align_airr/conv_residual_feature_extraction_block/max_pooling1d_7/Squeeze", "op": "Squeeze", "input": ["StatefulPartitionedCall/heavy_chain_align_airr/conv_residual_feature_extraction_block/max_pooling1d_7/MaxPool"], "attr": {"T": {"type": "DT_FLOAT"}, "squeeze_dims": {"list": {"i": ["2"]}}}}, {"name": "StatefulPartitionedCall/heavy_chain_align_airr/conv_residual_feature_extraction_block/conv1d_and__batch_norm_2/conv1d_7/Conv1D/ExpandDims", "op": "ExpandDims", "input": ["StatefulPartitionedCall/heavy_chain_align_airr/conv_residual_feature_extraction_block/conv1d_and__batch_norm_2/conv1d_6/BiasAdd", "StatefulPartitionedCall/heavy_chain_align_airr/conv_residual_feature_extraction_block/conv1d_and__batch_norm_2/conv1d_7/Conv1D/ExpandDims/dim"], "attr": {"Tdim": {"type": "DT_INT32"}, "T": {"type": "DT_FLOAT"}}}, {"name": "StatefulPartitionedCall/heavy_chain_align_airr/conv_residual_feature_extraction_block/conv1d_and__batch_norm_2/conv1d_7/Conv1D", "op": "_FusedConv2D", "input": ["StatefulPartitionedCall/heavy_chain_align_airr/conv_residual_feature_extraction_block/conv1d_and__batch_norm_2/conv1d_7/Conv1D/ExpandDims", "StatefulPartitionedCall/heavy_chain_align_airr/conv_residual_feature_extraction_block/conv1d_and__batch_norm_2/conv1d_7/Conv1D/ExpandDims_1", "StatefulPartitionedCall/heavy_chain_align_airr/conv_residual_feature_extraction_block/conv1d_and__batch_norm_2/conv1d_7/BiasAdd/ReadVariableOp"], "device": "/device:CPU:0", "attr": {"num_host_args": {"i": "0"}, "data_format": {"s": "TkhXQw=="}, "filter_format": {"s": "SFdJTw=="}, "strides": {"list": {"i": ["1", "1", "1", "1"]}}, "num_args": {"i": "1"}, "fused_ops": {"list": {"s": ["Qmlhc0FkZA=="]}}, "TArgs": {"list": {"type": ["DT_FLOAT"]}}, "padding": {"s": "U0FNRQ=="}, "use_cudnn_on_gpu": {"b": true}, "leakyrelu_alpha": {"f": 0.2}, "epsilon": {"f": 0.0}, "T": {"type": "DT_FLOAT"}, "explicit_paddings": {"list": {}}, "dilations": {"list": {"i": ["1", "1", "1", "1"]}}}}, {"name": "StatefulPartitionedCall/heavy_chain_align_airr/conv_residual_feature_extraction_block/conv1d_and__batch_norm_2/conv1d_7/BiasAdd", "op": "Squeeze", "input": ["StatefulPartitionedCall/heavy_chain_align_airr/conv_residual_feature_extraction_block/conv1d_and__batch_norm_2/conv1d_7/Conv1D"], "attr": {"T": {"type": "DT_FLOAT"}, "squeeze_dims": {"list": {"i": ["-3"]}}}}, {"name": "StatefulPartitionedCall/heavy_chain_align_airr/conv_residual_feature_extraction_block/conv1d_and__batch_norm_2/conv1d_8/Conv1D/ExpandDims", "op": "ExpandDims", "input": ["StatefulPartitionedCall/heavy_chain_align_airr/conv_residual_feature_extraction_block/conv1d_and__batch_norm_2/conv1d_7/BiasAdd", "StatefulPartitionedCall/heavy_chain_align_airr/conv_residual_feature_extraction_block/conv1d_and__batch_norm_2/conv1d_8/Conv1D/ExpandDims/dim"], "attr": {"Tdim": {"type": "DT_INT32"}, "T": {"type": "DT_FLOAT"}}}, {"name": "StatefulPartitionedCall/heavy_chain_align_airr/conv_residual_feature_extraction_block/conv1d_and__batch_norm_2/conv1d_8/Conv1D", "op": "_FusedConv2D", "input": ["StatefulPartitionedCall/heavy_chain_align_airr/conv_residual_feature_extraction_block/conv1d_and__batch_norm_2/conv1d_8/Conv1D/ExpandDims", "StatefulPartitionedCall/heavy_chain_align_airr/conv_residual_feature_extraction_block/conv1d_and__batch_norm_2/conv1d_8/Conv1D/ExpandDims_1", "StatefulPartitionedCall/heavy_chain_align_airr/conv_residual_feature_extraction_block/conv1d_and__batch_norm_2/conv1d_8/BiasAdd/ReadVariableOp"], "device": "/device:CPU:0", "attr": {"num_host_args": {"i": "0"}, "data_format": {"s": "TkhXQw=="}, "filter_format": {"s": "SFdJTw=="}, "strides": {"list": {"i": ["1", "1", "1", "1"]}}, "num_args": {"i": "1"}, "fused_ops": {"list": {"s": ["Qmlhc0FkZA=="]}}, "TArgs": {"list": {"type": ["DT_FLOAT"]}}, "padding": {"s": "U0FNRQ=="}, "use_cudnn_on_gpu": {"b": true}, "leakyrelu_alpha": {"f": 0.2}, "epsilon": {"f": 0.0}, "T": {"type": "DT_FLOAT"}, "explicit_paddings": {"list": {}}, "dilations": {"list": {"i": ["1", "1", "1", "1"]}}}}, {"name": "StatefulPartitionedCall/heavy_chain_align_airr/conv_residual_feature_extraction_block/conv1d_and__batch_norm_2/conv1d_8/BiasAdd", "op": "Squeeze", "input": ["StatefulPartitionedCall/heavy_chain_align_airr/conv_residual_feature_extraction_block/conv1d_and__batch_norm_2/conv1d_8/Conv1D"], "attr": {"T": {"type": "DT_FLOAT"}, "squeeze_dims": {"list": {"i": ["-3"]}}}}, {"name": "StatefulPartitionedCall/heavy_chain_align_airr/conv_residual_feature_extraction_block/conv1d_and__batch_norm_2/batch_normalization_2/batchnorm/mul_1", "op": "Mul", "input": ["StatefulPartitionedCall/heavy_chain_align_airr/conv_residual_feature_extraction_block/conv1d_and__batch_norm_2/conv1d_8/BiasAdd", "StatefulPartitionedCall/heavy_chain_align_airr/conv_residual_feature_extraction_block/conv1d_and__batch_norm_2/batch_normalization_2/batchnorm/mul"], "attr": {"T": {"type": "DT_FLOAT"}}}, {"name": "StatefulPartitionedCall/heavy_chain_align_airr/conv_residual_feature_extraction_block/conv1d_and__batch_norm_2/batch_normalization_2/batchnorm/add_1", "op": "AddV2", "input": ["StatefulPartitionedCall/heavy_chain_align_airr/conv_residual_feature_extraction_block/conv1d_and__batch_norm_2/batch_normalization_2/batchnorm/mul_1", "StatefulPartitionedCall/heavy_chain_align_airr/conv_residual_feature_extraction_block/conv1d_and__batch_norm_2/batch_normalization_2/batchnorm/sub"], "attr": {"T": {"type": "DT_FLOAT"}}}, {"name": "StatefulPartitionedCall/heavy_chain_align_airr/conv_residual_feature_extraction_block/conv1d_and__batch_norm_2/leaky_re_lu_2/LeakyRelu", "op": "LeakyRelu", "input": ["StatefulPartitionedCall/heavy_chain_align_airr/conv_residual_feature_extraction_block/conv1d_and__batch_norm_2/batch_normalization_2/batchnorm/add_1"], "attr": {"alpha": {"f": 0.3}, "T": {"type": "DT_FLOAT"}}}, {"name": "StatefulPartitionedCall/heavy_chain_align_airr/conv_residual_feature_extraction_block/conv1d_and__batch_norm_2/max_pooling1d_2/ExpandDims", "op": "ExpandDims", "input": ["StatefulPartitionedCall/heavy_chain_align_airr/conv_residual_feature_extraction_block/conv1d_and__batch_norm_2/leaky_re_lu_2/LeakyRelu", "StatefulPartitionedCall/heavy_chain_align_airr/conv_residual_feature_extraction_block/conv1d_and__batch_norm_2/max_pooling1d_2/ExpandDims/dim"], "attr": {"Tdim": {"type": "DT_INT32"}, "T": {"type": "DT_FLOAT"}}}, {"name": "StatefulPartitionedCall/heavy_chain_align_airr/conv_residual_feature_extraction_block/conv1d_and__batch_norm_2/max_pooling1d_2/MaxPool", "op": "MaxPool", "input": ["StatefulPartitionedCall/heavy_chain_align_airr/conv_residual_feature_extraction_block/conv1d_and__batch_norm_2/max_pooling1d_2/ExpandDims"], "attr": {"ksize": {"list": {"i": ["1", "2", "1", "1"]}}, "data_format": {"s": "TkhXQw=="}, "T": {"type": "DT_FLOAT"}, "explicit_paddings": {"list": {}}, "padding": {"s": "VkFMSUQ="}, "strides": {"list": {"i": ["1", "2", "1", "1"]}}}}, {"name": "StatefulPartitionedCall/heavy_chain_align_airr/conv_residual_feature_extraction_block/conv1d_and__batch_norm_2/max_pooling1d_2/Squeeze", "op": "Squeeze", "input": ["StatefulPartitionedCall/heavy_chain_align_airr/conv_residual_feature_extraction_block/conv1d_and__batch_norm_2/max_pooling1d_2/MaxPool"], "attr": {"T": {"type": "DT_FLOAT"}, "squeeze_dims": {"list": {"i": ["2"]}}}}, {"name": "StatefulPartitionedCall/heavy_chain_align_airr/conv_residual_feature_extraction_block/add_2/add", "op": "AddV2", "input": ["StatefulPartitionedCall/heavy_chain_align_airr/conv_residual_feature_extraction_block/conv1d_and__batch_norm_2/max_pooling1d_2/Squeeze", "StatefulPartitionedCall/heavy_chain_align_airr/conv_residual_feature_extraction_block/max_pooling1d_7/Squeeze"], "attr": {"T": {"type": "DT_FLOAT"}}}, {"name": "StatefulPartitionedCall/heavy_chain_align_airr/conv_residual_feature_extraction_block/leaky_re_lu_7/LeakyRelu", "op": "LeakyRelu", "input": ["StatefulPartitionedCall/heavy_chain_align_airr/conv_residual_feature_extraction_block/add_2/add"], "attr": {"alpha": {"f": 0.3}, "T": {"type": "DT_FLOAT"}}}, {"name": "StatefulPartitionedCall/heavy_chain_align_airr/conv_residual_feature_extraction_block/conv1d_and__batch_norm_3/conv1d_9/Conv1D/ExpandDims", "op": "ExpandDims", "input": ["StatefulPartitionedCall/heavy_chain_align_airr/conv_residual_feature_extraction_block/leaky_re_lu_7/LeakyRelu", "StatefulPartitionedCall/heavy_chain_align_airr/conv_residual_feature_extraction_block/conv1d_and__batch_norm_3/conv1d_9/Conv1D/ExpandDims/dim"], "attr": {"Tdim": {"type": "DT_INT32"}, "T": {"type": "DT_FLOAT"}}}, {"name": "StatefulPartitionedCall/heavy_chain_align_airr/conv_residual_feature_extraction_block/max_pooling1d_8/ExpandDims", "op": "ExpandDims", "input": ["StatefulPartitionedCall/heavy_chain_align_airr/conv_residual_feature_extraction_block/leaky_re_lu_7/LeakyRelu", "StatefulPartitionedCall/heavy_chain_align_airr/conv_residual_feature_extraction_block/max_pooling1d_8/ExpandDims/dim"], "attr": {"Tdim": {"type": "DT_INT32"}, "T": {"type": "DT_FLOAT"}}}, {"name": "StatefulPartitionedCall/heavy_chain_align_airr/conv_residual_feature_extraction_block/conv1d_and__batch_norm_3/conv1d_9/Conv1D", "op": "_FusedConv2D", "input": ["StatefulPartitionedCall/heavy_chain_align_airr/conv_residual_feature_extraction_block/conv1d_and__batch_norm_3/conv1d_9/Conv1D/ExpandDims", "StatefulPartitionedCall/heavy_chain_align_airr/conv_residual_feature_extraction_block/conv1d_and__batch_norm_3/conv1d_9/Conv1D/ExpandDims_1", "StatefulPartitionedCall/heavy_chain_align_airr/conv_residual_feature_extraction_block/conv1d_and__batch_norm_3/conv1d_9/BiasAdd/ReadVariableOp"], "device": "/device:CPU:0", "attr": {"num_host_args": {"i": "0"}, "data_format": {"s": "TkhXQw=="}, "filter_format": {"s": "SFdJTw=="}, "strides": {"list": {"i": ["1", "1", "1", "1"]}}, "num_args": {"i": "1"}, "fused_ops": {"list": {"s": ["Qmlhc0FkZA=="]}}, "TArgs": {"list": {"type": ["DT_FLOAT"]}}, "padding": {"s": "U0FNRQ=="}, "use_cudnn_on_gpu": {"b": true}, "leakyrelu_alpha": {"f": 0.2}, "epsilon": {"f": 0.0}, "T": {"type": "DT_FLOAT"}, "explicit_paddings": {"list": {}}, "dilations": {"list": {"i": ["1", "1", "1", "1"]}}}}, {"name": "StatefulPartitionedCall/heavy_chain_align_airr/conv_residual_feature_extraction_block/max_pooling1d_8/MaxPool", "op": "MaxPool", "input": ["StatefulPartitionedCall/heavy_chain_align_airr/conv_residual_feature_extraction_block/max_pooling1d_8/ExpandDims"], "attr": {"ksize": {"list": {"i": ["1", "2", "1", "1"]}}, "data_format": {"s": "TkhXQw=="}, "T": {"type": "DT_FLOAT"}, "explicit_paddings": {"list": {}}, "padding": {"s": "VkFMSUQ="}, "strides": {"list": {"i": ["1", "2", "1", "1"]}}}}, {"name": "StatefulPartitionedCall/heavy_chain_align_airr/conv_residual_feature_extraction_block/conv1d_and__batch_norm_3/conv1d_9/BiasAdd", "op": "Squeeze", "input": ["StatefulPartitionedCall/heavy_chain_align_airr/conv_residual_feature_extraction_block/conv1d_and__batch_norm_3/conv1d_9/Conv1D"], "attr": {"T": {"type": "DT_FLOAT"}, "squeeze_dims": {"list": {"i": ["-3"]}}}}, {"name": "StatefulPartitionedCall/heavy_chain_align_airr/conv_residual_feature_extraction_block/max_pooling1d_8/Squeeze", "op": "Squeeze", "input": ["StatefulPartitionedCall/heavy_chain_align_airr/conv_residual_feature_extraction_block/max_pooling1d_8/MaxPool"], "attr": {"T": {"type": "DT_FLOAT"}, "squeeze_dims": {"list": {"i": ["2"]}}}}, {"name": "StatefulPartitionedCall/heavy_chain_align_airr/conv_residual_feature_extraction_block/conv1d_and__batch_norm_3/conv1d_10/Conv1D/ExpandDims", "op": "ExpandDims", "input": ["StatefulPartitionedCall/heavy_chain_align_airr/conv_residual_feature_extraction_block/conv1d_and__batch_norm_3/conv1d_9/BiasAdd", "StatefulPartitionedCall/heavy_chain_align_airr/conv_residual_feature_extraction_block/conv1d_and__batch_norm_3/conv1d_10/Conv1D/ExpandDims/dim"], "attr": {"Tdim": {"type": "DT_INT32"}, "T": {"type": "DT_FLOAT"}}}, {"name": "StatefulPartitionedCall/heavy_chain_align_airr/conv_residual_feature_extraction_block/conv1d_and__batch_norm_3/conv1d_10/Conv1D", "op": "_FusedConv2D", "input": ["StatefulPartitionedCall/heavy_chain_align_airr/conv_residual_feature_extraction_block/conv1d_and__batch_norm_3/conv1d_10/Conv1D/ExpandDims", "StatefulPartitionedCall/heavy_chain_align_airr/conv_residual_feature_extraction_block/conv1d_and__batch_norm_3/conv1d_10/Conv1D/ExpandDims_1", "StatefulPartitionedCall/heavy_chain_align_airr/conv_residual_feature_extraction_block/conv1d_and__batch_norm_3/conv1d_10/BiasAdd/ReadVariableOp"], "device": "/device:CPU:0", "attr": {"num_host_args": {"i": "0"}, "data_format": {"s": "TkhXQw=="}, "filter_format": {"s": "SFdJTw=="}, "fused_ops": {"list": {"s": ["Qmlhc0FkZA=="]}}, "num_args": {"i": "1"}, "strides": {"list": {"i": ["1", "1", "1", "1"]}}, "TArgs": {"list": {"type": ["DT_FLOAT"]}}, "padding": {"s": "U0FNRQ=="}, "use_cudnn_on_gpu": {"b": true}, "leakyrelu_alpha": {"f": 0.2}, "epsilon": {"f": 0.0}, "T": {"type": "DT_FLOAT"}, "explicit_paddings": {"list": {}}, "dilations": {"list": {"i": ["1", "1", "1", "1"]}}}}, {"name": "StatefulPartitionedCall/heavy_chain_align_airr/conv_residual_feature_extraction_block/conv1d_and__batch_norm_3/conv1d_10/BiasAdd", "op": "Squeeze", "input": ["StatefulPartitionedCall/heavy_chain_align_airr/conv_residual_feature_extraction_block/conv1d_and__batch_norm_3/conv1d_10/Conv1D"], "attr": {"T": {"type": "DT_FLOAT"}, "squeeze_dims": {"list": {"i": ["-3"]}}}}, {"name": "StatefulPartitionedCall/heavy_chain_align_airr/conv_residual_feature_extraction_block/conv1d_and__batch_norm_3/conv1d_11/Conv1D/ExpandDims", "op": "ExpandDims", "input": ["StatefulPartitionedCall/heavy_chain_align_airr/conv_residual_feature_extraction_block/conv1d_and__batch_norm_3/conv1d_10/BiasAdd", "StatefulPartitionedCall/heavy_chain_align_airr/conv_residual_feature_extraction_block/conv1d_and__batch_norm_3/conv1d_11/Conv1D/ExpandDims/dim"], "attr": {"Tdim": {"type": "DT_INT32"}, "T": {"type": "DT_FLOAT"}}}, {"name": "StatefulPartitionedCall/heavy_chain_align_airr/conv_residual_feature_extraction_block/conv1d_and__batch_norm_3/conv1d_11/Conv1D", "op": "_FusedConv2D", "input": ["StatefulPartitionedCall/heavy_chain_align_airr/conv_residual_feature_extraction_block/conv1d_and__batch_norm_3/conv1d_11/Conv1D/ExpandDims", "StatefulPartitionedCall/heavy_chain_align_airr/conv_residual_feature_extraction_block/conv1d_and__batch_norm_3/conv1d_11/Conv1D/ExpandDims_1", "StatefulPartitionedCall/heavy_chain_align_airr/conv_residual_feature_extraction_block/conv1d_and__batch_norm_3/conv1d_11/BiasAdd/ReadVariableOp"], "device": "/device:CPU:0", "attr": {"num_host_args": {"i": "0"}, "data_format": {"s": "TkhXQw=="}, "filter_format": {"s": "SFdJTw=="}, "strides": {"list": {"i": ["1", "1", "1", "1"]}}, "num_args": {"i": "1"}, "fused_ops": {"list": {"s": ["Qmlhc0FkZA=="]}}, "TArgs": {"list": {"type": ["DT_FLOAT"]}}, "padding": {"s": "U0FNRQ=="}, "use_cudnn_on_gpu": {"b": true}, "leakyrelu_alpha": {"f": 0.2}, "epsilon": {"f": 0.0}, "T": {"type": "DT_FLOAT"}, "explicit_paddings": {"list": {}}, "dilations": {"list": {"i": ["1", "1", "1", "1"]}}}}, {"name": "StatefulPartitionedCall/heavy_chain_align_airr/conv_residual_feature_extraction_block/conv1d_and__batch_norm_3/conv1d_11/BiasAdd", "op": "Squeeze", "input": ["StatefulPartitionedCall/heavy_chain_align_airr/conv_residual_feature_extraction_block/conv1d_and__batch_norm_3/conv1d_11/Conv1D"], "attr": {"T": {"type": "DT_FLOAT"}, "squeeze_dims": {"list": {"i": ["-3"]}}}}, {"name": "StatefulPartitionedCall/heavy_chain_align_airr/conv_residual_feature_extraction_block/conv1d_and__batch_norm_3/batch_normalization_3/batchnorm/mul_1", "op": "Mul", "input": ["StatefulPartitionedCall/heavy_chain_align_airr/conv_residual_feature_extraction_block/conv1d_and__batch_norm_3/conv1d_11/BiasAdd", "StatefulPartitionedCall/heavy_chain_align_airr/conv_residual_feature_extraction_block/conv1d_and__batch_norm_3/batch_normalization_3/batchnorm/mul"], "attr": {"T": {"type": "DT_FLOAT"}}}, {"name": "StatefulPartitionedCall/heavy_chain_align_airr/conv_residual_feature_extraction_block/conv1d_and__batch_norm_3/batch_normalization_3/batchnorm/add_1", "op": "AddV2", "input": ["StatefulPartitionedCall/heavy_chain_align_airr/conv_residual_feature_extraction_block/conv1d_and__batch_norm_3/batch_normalization_3/batchnorm/mul_1", "StatefulPartitionedCall/heavy_chain_align_airr/conv_residual_feature_extraction_block/conv1d_and__batch_norm_3/batch_normalization_3/batchnorm/sub"], "attr": {"T": {"type": "DT_FLOAT"}}}, {"name": "StatefulPartitionedCall/heavy_chain_align_airr/conv_residual_feature_extraction_block/conv1d_and__batch_norm_3/leaky_re_lu_3/LeakyRelu", "op": "LeakyRelu", "input": ["StatefulPartitionedCall/heavy_chain_align_airr/conv_residual_feature_extraction_block/conv1d_and__batch_norm_3/batch_normalization_3/batchnorm/add_1"], "attr": {"alpha": {"f": 0.3}, "T": {"type": "DT_FLOAT"}}}, {"name": "StatefulPartitionedCall/heavy_chain_align_airr/conv_residual_feature_extraction_block/conv1d_and__batch_norm_3/max_pooling1d_3/ExpandDims", "op": "ExpandDims", "input": ["StatefulPartitionedCall/heavy_chain_align_airr/conv_residual_feature_extraction_block/conv1d_and__batch_norm_3/leaky_re_lu_3/LeakyRelu", "StatefulPartitionedCall/heavy_chain_align_airr/conv_residual_feature_extraction_block/conv1d_and__batch_norm_3/max_pooling1d_3/ExpandDims/dim"], "attr": {"Tdim": {"type": "DT_INT32"}, "T": {"type": "DT_FLOAT"}}}, {"name": "StatefulPartitionedCall/heavy_chain_align_airr/conv_residual_feature_extraction_block/conv1d_and__batch_norm_3/max_pooling1d_3/MaxPool", "op": "MaxPool", "input": ["StatefulPartitionedCall/heavy_chain_align_airr/conv_residual_feature_extraction_block/conv1d_and__batch_norm_3/max_pooling1d_3/ExpandDims"], "attr": {"ksize": {"list": {"i": ["1", "2", "1", "1"]}}, "data_format": {"s": "TkhXQw=="}, "T": {"type": "DT_FLOAT"}, "explicit_paddings": {"list": {}}, "padding": {"s": "VkFMSUQ="}, "strides": {"list": {"i": ["1", "2", "1", "1"]}}}}, {"name": "StatefulPartitionedCall/heavy_chain_align_airr/conv_residual_feature_extraction_block/conv1d_and__batch_norm_3/max_pooling1d_3/Squeeze", "op": "Squeeze", "input": ["StatefulPartitionedCall/heavy_chain_align_airr/conv_residual_feature_extraction_block/conv1d_and__batch_norm_3/max_pooling1d_3/MaxPool"], "attr": {"T": {"type": "DT_FLOAT"}, "squeeze_dims": {"list": {"i": ["2"]}}}}, {"name": "StatefulPartitionedCall/heavy_chain_align_airr/conv_residual_feature_extraction_block/add_3/add", "op": "AddV2", "input": ["StatefulPartitionedCall/heavy_chain_align_airr/conv_residual_feature_extraction_block/conv1d_and__batch_norm_3/max_pooling1d_3/Squeeze", "StatefulPartitionedCall/heavy_chain_align_airr/conv_residual_feature_extraction_block/max_pooling1d_8/Squeeze"], "attr": {"T": {"type": "DT_FLOAT"}}}, {"name": "StatefulPartitionedCall/heavy_chain_align_airr/conv_residual_feature_extraction_block/leaky_re_lu_8/LeakyRelu", "op": "LeakyRelu", "input": ["StatefulPartitionedCall/heavy_chain_align_airr/conv_residual_feature_extraction_block/add_3/add"], "attr": {"alpha": {"f": 0.3}, "T": {"type": "DT_FLOAT"}}}, {"name": "StatefulPartitionedCall/heavy_chain_align_airr/conv_residual_feature_extraction_block/conv1d_and__batch_norm_4/conv1d_12/Conv1D/ExpandDims", "op": "ExpandDims", "input": ["StatefulPartitionedCall/heavy_chain_align_airr/conv_residual_feature_extraction_block/leaky_re_lu_8/LeakyRelu", "StatefulPartitionedCall/heavy_chain_align_airr/conv_residual_feature_extraction_block/conv1d_and__batch_norm_4/conv1d_12/Conv1D/ExpandDims/dim"], "attr": {"Tdim": {"type": "DT_INT32"}, "T": {"type": "DT_FLOAT"}}}, {"name": "StatefulPartitionedCall/heavy_chain_align_airr/conv_residual_feature_extraction_block/max_pooling1d_9/ExpandDims", "op": "ExpandDims", "input": ["StatefulPartitionedCall/heavy_chain_align_airr/conv_residual_feature_extraction_block/leaky_re_lu_8/LeakyRelu", "StatefulPartitionedCall/heavy_chain_align_airr/conv_residual_feature_extraction_block/max_pooling1d_9/ExpandDims/dim"], "attr": {"Tdim": {"type": "DT_INT32"}, "T": {"type": "DT_FLOAT"}}}, {"name": "StatefulPartitionedCall/heavy_chain_align_airr/conv_residual_feature_extraction_block/conv1d_and__batch_norm_4/conv1d_12/Conv1D", "op": "_FusedConv2D", "input": ["StatefulPartitionedCall/heavy_chain_align_airr/conv_residual_feature_extraction_block/conv1d_and__batch_norm_4/conv1d_12/Conv1D/ExpandDims", "StatefulPartitionedCall/heavy_chain_align_airr/conv_residual_feature_extraction_block/conv1d_and__batch_norm_4/conv1d_12/Conv1D/ExpandDims_1", "StatefulPartitionedCall/heavy_chain_align_airr/conv_residual_feature_extraction_block/conv1d_and__batch_norm_4/conv1d_12/BiasAdd/ReadVariableOp"], "device": "/device:CPU:0", "attr": {"num_host_args": {"i": "0"}, "data_format": {"s": "TkhXQw=="}, "filter_format": {"s": "SFdJTw=="}, "fused_ops": {"list": {"s": ["Qmlhc0FkZA=="]}}, "num_args": {"i": "1"}, "strides": {"list": {"i": ["1", "1", "1", "1"]}}, "TArgs": {"list": {"type": ["DT_FLOAT"]}}, "padding": {"s": "U0FNRQ=="}, "use_cudnn_on_gpu": {"b": true}, "leakyrelu_alpha": {"f": 0.2}, "epsilon": {"f": 0.0}, "T": {"type": "DT_FLOAT"}, "explicit_paddings": {"list": {}}, "dilations": {"list": {"i": ["1", "1", "1", "1"]}}}}, {"name": "StatefulPartitionedCall/heavy_chain_align_airr/conv_residual_feature_extraction_block/max_pooling1d_9/MaxPool", "op": "MaxPool", "input": ["StatefulPartitionedCall/heavy_chain_align_airr/conv_residual_feature_extraction_block/max_pooling1d_9/ExpandDims"], "attr": {"padding": {"s": "VkFMSUQ="}, "data_format": {"s": "TkhXQw=="}, "T": {"type": "DT_FLOAT"}, "explicit_paddings": {"list": {}}, "ksize": {"list": {"i": ["1", "2", "1", "1"]}}, "strides": {"list": {"i": ["1", "2", "1", "1"]}}}}, {"name": "StatefulPartitionedCall/heavy_chain_align_airr/conv_residual_feature_extraction_block/conv1d_and__batch_norm_4/conv1d_12/BiasAdd", "op": "Squeeze", "input": ["StatefulPartitionedCall/heavy_chain_align_airr/conv_residual_feature_extraction_block/conv1d_and__batch_norm_4/conv1d_12/Conv1D"], "attr": {"T": {"type": "DT_FLOAT"}, "squeeze_dims": {"list": {"i": ["-3"]}}}}, {"name": "StatefulPartitionedCall/heavy_chain_align_airr/conv_residual_feature_extraction_block/max_pooling1d_9/Squeeze", "op": "Squeeze", "input": ["StatefulPartitionedCall/heavy_chain_align_airr/conv_residual_feature_extraction_block/max_pooling1d_9/MaxPool"], "attr": {"T": {"type": "DT_FLOAT"}, "squeeze_dims": {"list": {"i": ["2"]}}}}, {"name": "StatefulPartitionedCall/heavy_chain_align_airr/conv_residual_feature_extraction_block/conv1d_and__batch_norm_4/conv1d_13/Conv1D/ExpandDims", "op": "ExpandDims", "input": ["StatefulPartitionedCall/heavy_chain_align_airr/conv_residual_feature_extraction_block/conv1d_and__batch_norm_4/conv1d_12/BiasAdd", "StatefulPartitionedCall/heavy_chain_align_airr/conv_residual_feature_extraction_block/conv1d_and__batch_norm_4/conv1d_13/Conv1D/ExpandDims/dim"], "attr": {"Tdim": {"type": "DT_INT32"}, "T": {"type": "DT_FLOAT"}}}, {"name": "StatefulPartitionedCall/heavy_chain_align_airr/conv_residual_feature_extraction_block/conv1d_and__batch_norm_4/conv1d_13/Conv1D", "op": "_FusedConv2D", "input": ["StatefulPartitionedCall/heavy_chain_align_airr/conv_residual_feature_extraction_block/conv1d_and__batch_norm_4/conv1d_13/Conv1D/ExpandDims", "StatefulPartitionedCall/heavy_chain_align_airr/conv_residual_feature_extraction_block/conv1d_and__batch_norm_4/conv1d_13/Conv1D/ExpandDims_1", "StatefulPartitionedCall/heavy_chain_align_airr/conv_residual_feature_extraction_block/conv1d_and__batch_norm_4/conv1d_13/BiasAdd/ReadVariableOp"], "device": "/device:CPU:0", "attr": {"num_host_args": {"i": "0"}, "data_format": {"s": "TkhXQw=="}, "filter_format": {"s": "SFdJTw=="}, "fused_ops": {"list": {"s": ["Qmlhc0FkZA=="]}}, "num_args": {"i": "1"}, "strides": {"list": {"i": ["1", "1", "1", "1"]}}, "TArgs": {"list": {"type": ["DT_FLOAT"]}}, "padding": {"s": "U0FNRQ=="}, "use_cudnn_on_gpu": {"b": true}, "leakyrelu_alpha": {"f": 0.2}, "epsilon": {"f": 0.0}, "T": {"type": "DT_FLOAT"}, "explicit_paddings": {"list": {}}, "dilations": {"list": {"i": ["1", "1", "1", "1"]}}}}, {"name": "StatefulPartitionedCall/heavy_chain_align_airr/conv_residual_feature_extraction_block/conv1d_and__batch_norm_4/conv1d_13/BiasAdd", "op": "Squeeze", "input": ["StatefulPartitionedCall/heavy_chain_align_airr/conv_residual_feature_extraction_block/conv1d_and__batch_norm_4/conv1d_13/Conv1D"], "attr": {"T": {"type": "DT_FLOAT"}, "squeeze_dims": {"list": {"i": ["-3"]}}}}, {"name": "StatefulPartitionedCall/heavy_chain_align_airr/conv_residual_feature_extraction_block/conv1d_and__batch_norm_4/conv1d_14/Conv1D/ExpandDims", "op": "ExpandDims", "input": ["StatefulPartitionedCall/heavy_chain_align_airr/conv_residual_feature_extraction_block/conv1d_and__batch_norm_4/conv1d_13/BiasAdd", "StatefulPartitionedCall/heavy_chain_align_airr/conv_residual_feature_extraction_block/conv1d_and__batch_norm_4/conv1d_14/Conv1D/ExpandDims/dim"], "attr": {"Tdim": {"type": "DT_INT32"}, "T": {"type": "DT_FLOAT"}}}, {"name": "StatefulPartitionedCall/heavy_chain_align_airr/conv_residual_feature_extraction_block/conv1d_and__batch_norm_4/conv1d_14/Conv1D", "op": "_FusedConv2D", "input": ["StatefulPartitionedCall/heavy_chain_align_airr/conv_residual_feature_extraction_block/conv1d_and__batch_norm_4/conv1d_14/Conv1D/ExpandDims", "StatefulPartitionedCall/heavy_chain_align_airr/conv_residual_feature_extraction_block/conv1d_and__batch_norm_4/conv1d_14/Conv1D/ExpandDims_1", "StatefulPartitionedCall/heavy_chain_align_airr/conv_residual_feature_extraction_block/conv1d_and__batch_norm_4/conv1d_14/BiasAdd/ReadVariableOp"], "device": "/device:CPU:0", "attr": {"num_host_args": {"i": "0"}, "data_format": {"s": "TkhXQw=="}, "filter_format": {"s": "SFdJTw=="}, "strides": {"list": {"i": ["1", "1", "1", "1"]}}, "num_args": {"i": "1"}, "fused_ops": {"list": {"s": ["Qmlhc0FkZA=="]}}, "TArgs": {"list": {"type": ["DT_FLOAT"]}}, "padding": {"s": "U0FNRQ=="}, "use_cudnn_on_gpu": {"b": true}, "leakyrelu_alpha": {"f": 0.2}, "epsilon": {"f": 0.0}, "T": {"type": "DT_FLOAT"}, "explicit_paddings": {"list": {}}, "dilations": {"list": {"i": ["1", "1", "1", "1"]}}}}, {"name": "StatefulPartitionedCall/heavy_chain_align_airr/conv_residual_feature_extraction_block/conv1d_and__batch_norm_4/conv1d_14/BiasAdd", "op": "Squeeze", "input": ["StatefulPartitionedCall/heavy_chain_align_airr/conv_residual_feature_extraction_block/conv1d_and__batch_norm_4/conv1d_14/Conv1D"], "attr": {"T": {"type": "DT_FLOAT"}, "squeeze_dims": {"list": {"i": ["-3"]}}}}, {"name": "StatefulPartitionedCall/heavy_chain_align_airr/conv_residual_feature_extraction_block/conv1d_and__batch_norm_4/batch_normalization_4/batchnorm/mul_1", "op": "Mul", "input": ["StatefulPartitionedCall/heavy_chain_align_airr/conv_residual_feature_extraction_block/conv1d_and__batch_norm_4/conv1d_14/BiasAdd", "StatefulPartitionedCall/heavy_chain_align_airr/conv_residual_feature_extraction_block/conv1d_and__batch_norm_4/batch_normalization_4/batchnorm/mul"], "attr": {"T": {"type": "DT_FLOAT"}}}, {"name": "StatefulPartitionedCall/heavy_chain_align_airr/conv_residual_feature_extraction_block/conv1d_and__batch_norm_4/batch_normalization_4/batchnorm/add_1", "op": "AddV2", "input": ["StatefulPartitionedCall/heavy_chain_align_airr/conv_residual_feature_extraction_block/conv1d_and__batch_norm_4/batch_normalization_4/batchnorm/mul_1", "StatefulPartitionedCall/heavy_chain_align_airr/conv_residual_feature_extraction_block/conv1d_and__batch_norm_4/batch_normalization_4/batchnorm/sub"], "attr": {"T": {"type": "DT_FLOAT"}}}, {"name": "StatefulPartitionedCall/heavy_chain_align_airr/conv_residual_feature_extraction_block/conv1d_and__batch_norm_4/leaky_re_lu_4/LeakyRelu", "op": "LeakyRelu", "input": ["StatefulPartitionedCall/heavy_chain_align_airr/conv_residual_feature_extraction_block/conv1d_and__batch_norm_4/batch_normalization_4/batchnorm/add_1"], "attr": {"alpha": {"f": 0.3}, "T": {"type": "DT_FLOAT"}}}, {"name": "StatefulPartitionedCall/heavy_chain_align_airr/conv_residual_feature_extraction_block/conv1d_and__batch_norm_4/max_pooling1d_4/ExpandDims", "op": "ExpandDims", "input": ["StatefulPartitionedCall/heavy_chain_align_airr/conv_residual_feature_extraction_block/conv1d_and__batch_norm_4/leaky_re_lu_4/LeakyRelu", "StatefulPartitionedCall/heavy_chain_align_airr/conv_residual_feature_extraction_block/conv1d_and__batch_norm_4/max_pooling1d_4/ExpandDims/dim"], "attr": {"Tdim": {"type": "DT_INT32"}, "…
v_residual_feature_extraction_block_2/conv1d_and__batch_norm_12/batch_normalization_12/batchnorm/sub", "shape": [64], "dtype": "float32"}, {"name": "StatefulPartitionedCall/heavy_chain_align_airr/conv_residual_feature_extraction_block_2/conv1d_and__batch_norm_12/max_pooling1d_23/ExpandDims/dim", "shape": [], "dtype": "int32"}, {"name": "StatefulPartitionedCall/heavy_chain_align_airr/conv_residual_feature_extraction_block_2/conv1d_and__batch_norm_11/conv1d_35/Conv1D/ExpandDims/dim", "shape": [], "dtype": "int32"}, {"name": "StatefulPartitionedCall/heavy_chain_align_airr/conv_residual_feature_extraction_block_2/conv1d_and__batch_norm_11/conv1d_35/Conv1D/ExpandDims_1", "shape": [1, 3, 32, 64], "dtype": "float32"}, {"name": "StatefulPartitionedCall/heavy_chain_align_airr/conv_residual_feature_extraction_block_2/conv1d_and__batch_norm_11/conv1d_35/BiasAdd/ReadVariableOp", "shape": [64], "dtype": "float32"}, {"name": "StatefulPartitionedCall/heavy_chain_align_airr/conv_residual_feature_extraction_block_2/conv1d_and__batch_norm_11/conv1d_36/Conv1D/ExpandDims/dim", "shape": [], "dtype": "int32"}, {"name": "StatefulPartitionedCall/heavy_chain_align_airr/conv_residual_feature_extraction_block_2/conv1d_and__batch_norm_11/conv1d_36/Conv1D/ExpandDims_1", "shape": [1, 3, 64, 64], "dtype": "float32"}, {"name": "StatefulPartitionedCall/heavy_chain_align_airr/conv_residual_feature_extraction_block_2/conv1d_and__batch_norm_11/conv1d_36/BiasAdd/ReadVariableOp", "shape": [64], "dtype": "float32"}, {"name": "StatefulPartitionedCall/heavy_chain_align_airr/conv_residual_feature_extraction_block_2/conv1d_and__batch_norm_11/conv1d_37/Conv1D/ExpandDims/dim", "shape": [], "dtype": "int32"}, {"name": "StatefulPartitionedCall/heavy_chain_align_airr/conv_residual_feature_extraction_block_2/conv1d_and__batch_norm_11/conv1d_37/Conv1D/ExpandDims_1", "shape": [1, 3, 64, 64], "dtype": "float32"}, {"name": "StatefulPartitionedCall/heavy_chain_align_airr/conv_residual_feature_extraction_block_2/conv1d_and__batch_norm_11/conv1d_37/BiasAdd/ReadVariableOp", "shape": [64], "dtype": "float32"}, {"name": "StatefulPartitionedCall/heavy_chain_align_airr/conv_residual_feature_extraction_block_2/conv1d_and__batch_norm_11/batch_normalization_11/batchnorm/mul", "shape": [64], "dtype": "float32"}, {"name": "StatefulPartitionedCall/heavy_chain_align_airr/conv_residual_feature_extraction_block_2/conv1d_and__batch_norm_11/batch_normalization_11/batchnorm/sub", "shape": [64], "dtype": "float32"}, {"name": "StatefulPartitionedCall/heavy_chain_align_airr/conv_residual_feature_extraction_block_2/conv1d_and__batch_norm_11/max_pooling1d_22/ExpandDims/dim", "shape": [], "dtype": "int32"}, {"name": "StatefulPartitionedCall/heavy_chain_align_airr/reshape_1/strided_slice/stack", "shape": [1], "dtype": "int32"}, {"name": "StatefulPartitionedCall/heavy_chain_align_airr/reshape_1/strided_slice/stack_1", "shape": [1], "dtype": "int32"}, {"name": "StatefulPartitionedCall/heavy_chain_align_airr/reshape_1/strided_slice/stack_2", "shape": [1], "dtype": "int32"}, {"name": "StatefulPartitionedCall/heavy_chain_align_airr/reshape_1/Reshape/shape/1", "shape": [], "dtype": "int32"}, {"name": "StatefulPartitionedCall/heavy_chain_align_airr/reshape_1/Reshape/shape/2", "shape": [], "dtype": "int32"}, {"name": "StatefulPartitionedCall/heavy_chain_align_airr/conv_residual_feature_extraction_block_2/conv1d_47/Conv1D/ExpandDims/dim", "shape": [], "dtype": "int32"}, {"name": "StatefulPartitionedCall/heavy_chain_align_airr/conv_residual_feature_extraction_block_2/conv1d_47/Conv1D/ExpandDims_1", "shape": [1, 5, 32, 64], "dtype": "float32"}, {"name": "StatefulPartitionedCall/heavy_chain_align_airr/conv_residual_feature_extraction_block_2/conv1d_47/BiasAdd/ReadVariableOp", "shape": [64], "dtype": "float32"}, {"name": "StatefulPartitionedCall/heavy_chain_align_airr/conv_residual_feature_extraction_block_2/max_pooling1d_26/ExpandDims/dim", "shape": [], "dtype": "int32"}, {"name": "StatefulPartitionedCall/heavy_chain_align_airr/conv_residual_feature_extraction_block_2/max_pooling1d_26/ExpandDims_1/dim", "shape": [], "dtype": "int32"}, {"name": "StatefulPartitionedCall/heavy_chain_align_airr/conv_residual_feature_extraction_block_2/max_pooling1d_27/ExpandDims/dim", "shape": [], "dtype": "int32"}, {"name": "StatefulPartitionedCall/heavy_chain_align_airr/conv_residual_feature_extraction_block_2/max_pooling1d_28/ExpandDims/dim", "shape": [], "dtype": "int32"}, {"name": "StatefulPartitionedCall/heavy_chain_align_airr/conv_residual_feature_extraction_block_2/max_pooling1d_29/ExpandDims/dim", "shape": [], "dtype": "int32"}, {"name": "StatefulPartitionedCall/heavy_chain_align_airr/conv_residual_feature_extraction_block_2/flatten_2/Const", "shape": [2], "dtype": "int32"}, {"name": "StatefulPartitionedCall/heavy_chain_align_airr/d_allele_middle/MatMul/ReadVariableOp", "shape": [1024, 68], "dtype": "float32"}, {"name": "StatefulPartitionedCall/heavy_chain_align_airr/d_allele_middle/BiasAdd/ReadVariableOp", "shape": [68], "dtype": "float32"}, {"name": "StatefulPartitionedCall/heavy_chain_align_airr/d_allele/MatMul/ReadVariableOp", "shape": [68, 34], "dtype": "float32"}, {"name": "StatefulPartitionedCall/heavy_chain_align_airr/d_allele/BiasAdd/ReadVariableOp", "shape": [34], "dtype": "float32"}, {"name": "StatefulPartitionedCall/heavy_chain_align_airr/dense_1/MatMul/ReadVariableOp", "shape": [512, 32], "dtype": "float32"}, {"name": "StatefulPartitionedCall/heavy_chain_align_airr/dense_1/BiasAdd/ReadVariableOp", "shape": [32], "dtype": "float32"}, {"name": "StatefulPartitionedCall/heavy_chain_align_airr/d_segment/MatMul/ReadVariableOp", "shape": [32, 512], "dtype": "float32"}, {"name": "StatefulPartitionedCall/heavy_chain_align_airr/d_segment/BiasAdd/ReadVariableOp", "shape": [512], "dtype": "float32"}, {"name": "StatefulPartitionedCall/heavy_chain_align_airr/conv_residual_feature_extraction_block_3/conv1d_and__batch_norm_18/conv1d_57/Conv1D/ExpandDims/dim", "shape": [], "dtype": "int32"}, {"name": "StatefulPartitionedCall/heavy_chain_align_airr/conv_residual_feature_extraction_block_3/conv1d_and__batch_norm_18/conv1d_57/Conv1D/ExpandDims_1", "shape": [1, 2, 64, 64], "dtype": "float32"}, {"name": "StatefulPartitionedCall/heavy_chain_align_airr/conv_residual_feature_extraction_block_3/conv1d_and__batch_norm_18/conv1d_57/BiasAdd/ReadVariableOp", "shape": [64], "dtype": "float32"}, {"name": "StatefulPartitionedCall/heavy_chain_align_airr/conv_residual_feature_extraction_block_3/conv1d_and__batch_norm_18/conv1d_58/Conv1D/ExpandDims/dim", "shape": [], "dtype": "int32"}, {"name": "StatefulPartitionedCall/heavy_chain_align_airr/conv_residual_feature_extraction_block_3/conv1d_and__batch_norm_18/conv1d_58/Conv1D/ExpandDims_1", "shape": [1, 2, 64, 64], "dtype": "float32"}, {"name": "StatefulPartitionedCall/heavy_chain_align_airr/conv_residual_feature_extraction_block_3/conv1d_and__batch_norm_18/conv1d_58/BiasAdd/ReadVariableOp", "shape": [64], "dtype": "float32"}, {"name": "StatefulPartitionedCall/heavy_chain_align_airr/conv_residual_feature_extraction_block_3/conv1d_and__batch_norm_18/conv1d_59/Conv1D/ExpandDims/dim", "shape": [], "dtype": "int32"}, {"name": "StatefulPartitionedCall/heavy_chain_align_airr/conv_residual_feature_extraction_block_3/conv1d_and__batch_norm_18/conv1d_59/Conv1D/ExpandDims_1", "shape": [1, 2, 64, 64], "dtype": "float32"}, {"name": "StatefulPartitionedCall/heavy_chain_align_airr/conv_residual_feature_extraction_block_3/conv1d_and__batch_norm_18/conv1d_59/BiasAdd/ReadVariableOp", "shape": [64], "dtype": "float32"}, {"name": "StatefulPartitionedCall/heavy_chain_align_airr/conv_residual_feature_extraction_block_3/conv1d_and__batch_norm_18/batch_normalization_18/batchnorm/mul", "shape": [64], "dtype": "float32"}, {"name": "StatefulPartitionedCall/heavy_chain_align_airr/conv_residual_feature_extraction_block_3/conv1d_and__batch_norm_18/batch_normalization_18/batchnorm/sub", "shape": [64], "dtype": "float32"}, {"name": "StatefulPartitionedCall/heavy_chain_align_airr/conv_residual_feature_extraction_block_3/conv1d_and__batch_norm_18/max_pooling1d_33/ExpandDims/dim", "shape": [], "dtype": "int32"}, {"name": "StatefulPartitionedCall/heavy_chain_align_airr/conv_residual_feature_extraction_block_3/conv1d_and__batch_norm_17/conv1d_54/Conv1D/ExpandDims/dim", "shape": [], "dtype": "int32"}, {"name": "StatefulPartitionedCall/heavy_chain_align_airr/conv_residual_feature_extraction_block_3/conv1d_and__batch_norm_17/conv1d_54/Conv1D/ExpandDims_1", "shape": [1, 3, 64, 64], "dtype": "float32"}, {"name": "StatefulPartitionedCall/heavy_chain_align_airr/conv_residual_feature_extraction_block_3/conv1d_and__batch_norm_17/conv1d_54/BiasAdd/ReadVariableOp", "shape": [64], "dtype": "float32"}, {"name": "StatefulPartitionedCall/heavy_chain_align_airr/conv_residual_feature_extraction_block_3/conv1d_and__batch_norm_17/conv1d_55/Conv1D/ExpandDims/dim", "shape": [], "dtype": "int32"}, {"name": "StatefulPartitionedCall/heavy_chain_align_airr/conv_residual_feature_extraction_block_3/conv1d_and__batch_norm_17/conv1d_55/Conv1D/ExpandDims_1", "shape": [1, 3, 64, 64], "dtype": "float32"}, {"name": "StatefulPartitionedCall/heavy_chain_align_airr/conv_residual_feature_extraction_block_3/conv1d_and__batch_norm_17/conv1d_55/BiasAdd/ReadVariableOp", "shape": [64], "dtype": "float32"}, {"name": "StatefulPartitionedCall/heavy_chain_align_airr/conv_residual_feature_extraction_block_3/conv1d_and__batch_norm_17/conv1d_56/Conv1D/ExpandDims/dim", "shape": [], "dtype": "int32"}, {"name": "StatefulPartitionedCall/heavy_chain_align_airr/conv_residual_feature_extraction_block_3/conv1d_and__batch_norm_17/conv1d_56/Conv1D/ExpandDims_1", "shape": [1, 3, 64, 64], "dtype": "float32"}, {"name": "StatefulPartitionedCall/heavy_chain_align_airr/conv_residual_feature_extraction_block_3/conv1d_and__batch_norm_17/conv1d_56/BiasAdd/ReadVariableOp", "shape": [64], "dtype": "float32"}, {"name": "StatefulPartitionedCall/heavy_chain_align_airr/conv_residual_feature_extraction_block_3/conv1d_and__batch_norm_17/batch_normalization_17/batchnorm/mul", "shape": [64], "dtype": "float32"}, {"name": "StatefulPartitionedCall/heavy_chain_align_airr/conv_residual_feature_extraction_block_3/conv1d_and__batch_norm_17/batch_normalization_17/batchnorm/sub", "shape": [64], "dtype": "float32"}, {"name": "StatefulPartitionedCall/heavy_chain_align_airr/conv_residual_feature_extraction_block_3/conv1d_and__batch_norm_17/max_pooling1d_32/ExpandDims/dim", "shape": [], "dtype": "int32"}, {"name": "StatefulPartitionedCall/heavy_chain_align_airr/conv_residual_feature_extraction_block_3/conv1d_and__batch_norm_16/conv1d_51/Conv1D/ExpandDims/dim", "shape": [], "dtype": "int32"}, {"name": "StatefulPartitionedCall/heavy_chain_align_airr/conv_residual_feature_extraction_block_3/conv1d_and__batch_norm_16/conv1d_51/Conv1D/ExpandDims_1", "shape": [1, 3, 64, 64], "dtype": "float32"}, {"name": "StatefulPartitionedCall/heavy_chain_align_airr/conv_residual_feature_extraction_block_3/conv1d_and__batch_norm_16/conv1d_51/BiasAdd/ReadVariableOp", "shape": [64], "dtype": "float32"}, {"name": "StatefulPartitionedCall/heavy_chain_align_airr/conv_residual_feature_extraction_block_3/conv1d_and__batch_norm_16/conv1d_52/Conv1D/ExpandDims/dim", "shape": [], "dtype": "int32"}, {"name": "StatefulPartitionedCall/heavy_chain_align_airr/conv_residual_feature_extraction_block_3/conv1d_and__batch_norm_16/conv1d_52/Conv1D/ExpandDims_1", "shape": [1, 3, 64, 64], "dtype": "float32"}, {"name": "StatefulPartitionedCall/heavy_chain_align_airr/conv_residual_feature_extraction_block_3/conv1d_and__batch_norm_16/conv1d_52/BiasAdd/ReadVariableOp", "shape": [64], "dtype": "float32"}, {"name": "StatefulPartitionedCall/heavy_chain_align_airr/conv_residual_feature_extraction_block_3/conv1d_and__batch_norm_16/conv1d_53/Conv1D/ExpandDims/dim", "shape": [], "dtype": "int32"}, {"name": "StatefulPartitionedCall/heavy_chain_align_airr/conv_residual_feature_extraction_block_3/conv1d_and__batch_norm_16/conv1d_53/Conv1D/ExpandDims_1", "shape": [1, 3, 64, 64], "dtype": "float32"}, {"name": "StatefulPartitionedCall/heavy_chain_align_airr/conv_residual_feature_extraction_block_3/conv1d_and__batch_norm_16/conv1d_53/BiasAdd/ReadVariableOp", "shape": [64], "dtype": "float32"}, {"name": "StatefulPartitionedCall/heavy_chain_align_airr/conv_residual_feature_extraction_block_3/conv1d_and__batch_norm_16/batch_normalization_16/batchnorm/mul", "shape": [64], "dtype": "float32"}, {"name": "StatefulPartitionedCall/heavy_chain_align_airr/conv_residual_feature_extraction_block_3/conv1d_and__batch_norm_16/batch_normalization_16/batchnorm/sub", "shape": [64], "dtype": "float32"}, {"name": "StatefulPartitionedCall/heavy_chain_align_airr/conv_residual_feature_extraction_block_3/conv1d_and__batch_norm_16/max_pooling1d_31/ExpandDims/dim", "shape": [], "dtype": "int32"}, {"name": "StatefulPartitionedCall/heavy_chain_align_airr/conv_residual_feature_extraction_block_3/conv1d_and__batch_norm_15/conv1d_48/Conv1D/ExpandDims/dim", "shape": [], "dtype": "int32"}, {"name": "StatefulPartitionedCall/heavy_chain_align_airr/conv_residual_feature_extraction_block_3/conv1d_and__batch_norm_15/conv1d_48/Conv1D/ExpandDims_1", "shape": [1, 3, 32, 64], "dtype": "float32"}, {"name": "StatefulPartitionedCall/heavy_chain_align_airr/conv_residual_feature_extraction_block_3/conv1d_and__batch_norm_15/conv1d_48/BiasAdd/ReadVariableOp", "shape": [64], "dtype": "float32"}, {"name": "StatefulPartitionedCall/heavy_chain_align_airr/conv_residual_feature_extraction_block_3/conv1d_and__batch_norm_15/conv1d_49/Conv1D/ExpandDims/dim", "shape": [], "dtype": "int32"}, {"name": "StatefulPartitionedCall/heavy_chain_align_airr/conv_residual_feature_extraction_block_3/conv1d_and__batch_norm_15/conv1d_49/Conv1D/ExpandDims_1", "shape": [1, 3, 64, 64], "dtype": "float32"}, {"name": "StatefulPartitionedCall/heavy_chain_align_airr/conv_residual_feature_extraction_block_3/conv1d_and__batch_norm_15/conv1d_49/BiasAdd/ReadVariableOp", "shape": [64], "dtype": "float32"}, {"name": "StatefulPartitionedCall/heavy_chain_align_airr/conv_residual_feature_extraction_block_3/conv1d_and__batch_norm_15/conv1d_50/Conv1D/ExpandDims/dim", "shape": [], "dtype": "int32"}, {"name": "StatefulPartitionedCall/heavy_chain_align_airr/conv_residual_feature_extraction_block_3/conv1d_and__batch_norm_15/conv1d_50/Conv1D/ExpandDims_1", "shape": [1, 3, 64, 64], "dtype": "float32"}, {"name": "StatefulPartitionedCall/heavy_chain_align_airr/conv_residual_feature_extraction_block_3/conv1d_and__batch_norm_15/conv1d_50/BiasAdd/ReadVariableOp", "shape": [64], "dtype": "float32"}, {"name": "StatefulPartitionedCall/heavy_chain_align_airr/conv_residual_feature_extraction_block_3/conv1d_and__batch_norm_15/batch_normalization_15/batchnorm/mul", "shape": [64], "dtype": "float32"}, {"name": "StatefulPartitionedCall/heavy_chain_align_airr/conv_residual_feature_extraction_block_3/conv1d_and__batch_norm_15/batch_normalization_15/batchnorm/sub", "shape": [64], "dtype": "float32"}, {"name": "StatefulPartitionedCall/heavy_chain_align_airr/conv_residual_feature_extraction_block_3/conv1d_and__batch_norm_15/max_pooling1d_30/ExpandDims/dim", "shape": [], "dtype": "int32"}, {"name": "StatefulPartitionedCall/heavy_chain_align_airr/reshape_2/strided_slice/stack", "shape": [1], "dtype": "int32"}, {"name": "StatefulPartitionedCall/heavy_chain_align_airr/reshape_2/strided_slice/stack_1", "shape": [1], "dtype": "int32"}, {"name": "StatefulPartitionedCall/heavy_chain_align_airr/reshape_2/strided_slice/stack_2", "shape": [1], "dtype": "int32"}, {"name": "StatefulPartitionedCall/heavy_chain_align_airr/reshape_2/Reshape/shape/1", "shape": [], "dtype": "int32"}, {"name": "StatefulPartitionedCall/heavy_chain_align_airr/reshape_2/Reshape/shape/2", "shape": [], "dtype": "int32"}, {"name": "StatefulPartitionedCall/heavy_chain_align_airr/conv_residual_feature_extraction_block_3/conv1d_60/Conv1D/ExpandDims/dim", "shape": [], "dtype": "int32"}, {"name": "StatefulPartitionedCall/heavy_chain_align_airr/conv_residual_feature_extraction_block_3/conv1d_60/Conv1D/ExpandDims_1", "shape": [1, 5, 32, 64], "dtype": "float32"}, {"name": "StatefulPartitionedCall/heavy_chain_align_airr/conv_residual_feature_extraction_block_3/conv1d_60/BiasAdd/ReadVariableOp", "shape": [64], "dtype": "float32"}, {"name": "StatefulPartitionedCall/heavy_chain_align_airr/conv_residual_feature_extraction_block_3/max_pooling1d_34/ExpandDims/dim", "shape": [], "dtype": "int32"}, {"name": "StatefulPartitionedCall/heavy_chain_align_airr/conv_residual_feature_extraction_block_3/max_pooling1d_34/ExpandDims_1/dim", "shape": [], "dtype": "int32"}, {"name": "StatefulPartitionedCall/heavy_chain_align_airr/conv_residual_feature_extraction_block_3/max_pooling1d_35/ExpandDims/dim", "shape": [], "dtype": "int32"}, {"name": "StatefulPartitionedCall/heavy_chain_align_airr/conv_residual_feature_extraction_block_3/max_pooling1d_36/ExpandDims/dim", "shape": [], "dtype": "int32"}, {"name": "StatefulPartitionedCall/heavy_chain_align_airr/conv_residual_feature_extraction_block_3/max_pooling1d_37/ExpandDims/dim", "shape": [], "dtype": "int32"}, {"name": "StatefulPartitionedCall/heavy_chain_align_airr/conv_residual_feature_extraction_block_3/flatten_3/Const", "shape": [2], "dtype": "int32"}, {"name": "StatefulPartitionedCall/heavy_chain_align_airr/j_allele_middle/MatMul/ReadVariableOp", "shape": [1024, 14], "dtype": "float32"}, {"name": "StatefulPartitionedCall/heavy_chain_align_airr/j_allele_middle/BiasAdd/ReadVariableOp", "shape": [14], "dtype": "float32"}, {"name": "StatefulPartitionedCall/heavy_chain_align_airr/j_allele/MatMul/ReadVariableOp", "shape": [14, 7], "dtype": "float32"}, {"name": "StatefulPartitionedCall/heavy_chain_align_airr/j_allele/BiasAdd/ReadVariableOp", "shape": [7], "dtype": "float32"}, {"name": "StatefulPartitionedCall/heavy_chain_align_airr/dense_2/MatMul/ReadVariableOp", "shape": [512, 32], "dtype": "float32"}, {"name": "StatefulPartitionedCall/heavy_chain_align_airr/dense_2/BiasAdd/ReadVariableOp", "shape": [32], "dtype": "float32"}, {"name": "StatefulPartitionedCall/heavy_chain_align_airr/j_segment/MatMul/ReadVariableOp", "shape": [32, 512], "dtype": "float32"}, {"name": "StatefulPartitionedCall/heavy_chain_align_airr/j_segment/BiasAdd/ReadVariableOp", "shape": [512], "dtype": "float32"}, {"name": "StatefulPartitionedCall/heavy_chain_align_airr/mutation_rate_mid/MatMul/ReadVariableOp", "shape": [512, 256], "dtype": "float32"}, {"name": "StatefulPartitionedCall/heavy_chain_align_airr/mutation_rate_mid/BiasAdd/ReadVariableOp", "shape": [256], "dtype": "float32"}, {"name": "StatefulPartitionedCall/heavy_chain_align_airr/mutation_rate/MatMul/ReadVariableOp", "shape": [256, 1], "dtype": "float32"}, {"name": "StatefulPartitionedCall/heavy_chain_align_airr/mutation_rate/BiasAdd/ReadVariableOp", "shape": [1], "dtype": "float32"}, {"name": "StatefulPartitionedCall/heavy_chain_align_airr/conv_residual_feature_extraction_block_1/conv1d_and__batch_norm_10/conv1d_31/Conv1D/ExpandDims/dim", "shape": [], "dtype": "int32"}, {"name": "StatefulPartitionedCall/heavy_chain_align_airr/conv_residual_feature_extraction_block_1/conv1d_and__batch_norm_10/conv1d_31/Conv1D/ExpandDims_1", "shape": [1, 2, 128, 128], "dtype": "float32"}, {"name": "StatefulPartitionedCall/heavy_chain_align_airr/conv_residual_feature_extraction_block_1/conv1d_and__batch_norm_10/conv1d_31/BiasAdd/ReadVariableOp", "shape": [128], "dtype": "float32"}, {"name": "StatefulPartitionedCall/heavy_chain_align_airr/conv_residual_feature_extraction_block_1/conv1d_and__batch_norm_10/conv1d_32/Conv1D/ExpandDims/dim", "shape": [], "dtype": "int32"}, {"name": "StatefulPartitionedCall/heavy_chain_align_airr/conv_residual_feature_extraction_block_1/conv1d_and__batch_norm_10/conv1d_32/Conv1D/ExpandDims_1", "shape": [1, 2, 128, 128], "dtype": "float32"}, {"name": "StatefulPartitionedCall/heavy_chain_align_airr/conv_residual_feature_extraction_block_1/conv1d_and__batch_norm_10/conv1d_32/BiasAdd/ReadVariableOp", "shape": [128], "dtype": "float32"}, {"name": "StatefulPartitionedCall/heavy_chain_align_airr/conv_residual_feature_extraction_block_1/conv1d_and__batch_norm_10/conv1d_33/Conv1D/ExpandDims/dim", "shape": [], "dtype": "int32"}, {"name": "StatefulPartitionedCall/heavy_chain_align_airr/conv_residual_feature_extraction_block_1/conv1d_and__batch_norm_10/conv1d_33/Conv1D/ExpandDims_1", "shape": [1, 2, 128, 128], "dtype": "float32"}, {"name": "StatefulPartitionedCall/heavy_chain_align_airr/conv_residual_feature_extraction_block_1/conv1d_and__batch_norm_10/conv1d_33/BiasAdd/ReadVariableOp", "shape": [128], "dtype": "float32"}, {"name": "StatefulPartitionedCall/heavy_chain_align_airr/conv_residual_feature_extraction_block_1/conv1d_and__batch_norm_10/batch_normalization_10/batchnorm/mul", "shape": [128], "dtype": "float32"}, {"name": "StatefulPartitionedCall/heavy_chain_align_airr/conv_residual_feature_extraction_block_1/conv1d_and__batch_norm_10/batch_normalization_10/batchnorm/sub", "shape": [128], "dtype": "float32"}, {"name": "StatefulPartitionedCall/heavy_chain_align_airr/conv_residual_feature_extraction_block_1/conv1d_and__batch_norm_10/max_pooling1d_15/ExpandDims/dim", "shape": [], "dtype": "int32"}, {"name": "StatefulPartitionedCall/heavy_chain_align_airr/conv_residual_feature_extraction_block_1/conv1d_and__batch_norm_9/conv1d_28/Conv1D/ExpandDims/dim", "shape": [], "dtype": "int32"}, {"name": "StatefulPartitionedCall/heavy_chain_align_airr/conv_residual_feature_extraction_block_1/conv1d_and__batch_norm_9/conv1d_28/Conv1D/ExpandDims_1", "shape": [1, 2, 128, 128], "dtype": "float32"}, {"name": "StatefulPartitionedCall/heavy_chain_align_airr/conv_residual_feature_extraction_block_1/conv1d_and__batch_norm_9/conv1d_28/BiasAdd/ReadVariableOp", "shape": [128], "dtype": "float32"}, {"name": "StatefulPartitionedCall/heavy_chain_align_airr/conv_residual_feature_extraction_block_1/conv1d_and__batch_norm_9/conv1d_29/Conv1D/ExpandDims/dim", "shape": [], "dtype": "int32"}, {"name": "StatefulPartitionedCall/heavy_chain_align_airr/conv_residual_feature_extraction_block_1/conv1d_and__batch_norm_9/conv1d_29/Conv1D/ExpandDims_1", "shape": [1, 2, 128, 128], "dtype": "float32"}, {"name": "StatefulPartitionedCall/heavy_chain_align_airr/conv_residual_feature_extraction_block_1/conv1d_and__batch_norm_9/conv1d_29/BiasAdd/ReadVariableOp", "shape": [128], "dtype": "float32"}, {"name": "StatefulPartitionedCall/heavy_chain_align_airr/conv_residual_feature_extraction_block_1/conv1d_and__batch_norm_9/conv1d_30/Conv1D/ExpandDims/dim", "shape": [], "dtype": "int32"}, {"name": "StatefulPartitionedCall/heavy_chain_align_airr/conv_residual_feature_extraction_block_1/conv1d_and__batch_norm_9/conv1d_30/Conv1D/ExpandDims_1", "shape": [1, 2, 128, 128], "dtype": "float32"}, {"name": "StatefulPartitionedCall/heavy_chain_align_airr/conv_residual_feature_extraction_block_1/conv1d_and__batch_norm_9/conv1d_30/BiasAdd/ReadVariableOp", "shape": [128], "dtype": "float32"}, {"name": "StatefulPartitionedCall/heavy_chain_align_airr/conv_residual_feature_extraction_block_1/conv1d_and__batch_norm_9/batch_normalization_9/batchnorm/mul", "shape": [128], "dtype": "float32"}, {"name": "StatefulPartitionedCall/heavy_chain_align_airr/conv_residual_feature_extraction_block_1/conv1d_and__batch_norm_9/batch_normalization_9/batchnorm/sub", "shape": [128], "dtype": "float32"}, {"name": "StatefulPartitionedCall/heavy_chain_align_airr/conv_residual_feature_extraction_block_1/conv1d_and__batch_norm_9/max_pooling1d_14/ExpandDims/dim", "shape": [], "dtype": "int32"}, {"name": "StatefulPartitionedCall/heavy_chain_align_airr/conv_residual_feature_extraction_block_1/conv1d_and__batch_norm_8/conv1d_25/Conv1D/ExpandDims/dim", "shape": [], "dtype": "int32"}, {"name": "StatefulPartitionedCall/heavy_chain_align_airr/conv_residual_feature_extraction_block_1/conv1d_and__batch_norm_8/conv1d_25/Conv1D/ExpandDims_1", "shape": [1, 2, 128, 128], "dtype": "float32"}, {"name": "StatefulPartitionedCall/heavy_chain_align_airr/conv_residual_feature_extraction_block_1/conv1d_and__batch_norm_8/conv1d_25/BiasAdd/ReadVariableOp", "shape": [128], "dtype": "float32"}, {"name": "StatefulPartitionedCall/heavy_chain_align_airr/conv_residual_feature_extraction_block_1/conv1d_and__batch_norm_8/conv1d_26/Conv1D/ExpandDims/dim", "shape": [], "dtype": "int32"}, {"name": "StatefulPartitionedCall/heavy_chain_align_airr/conv_residual_feature_extraction_block_1/conv1d_and__batch_norm_8/conv1d_26/Conv1D/ExpandDims_1", "shape": [1, 2, 128, 128], "dtype": "float32"}, {"name": "StatefulPartitionedCall/heavy_chain_align_airr/conv_residual_feature_extraction_block_1/conv1d_and__batch_norm_8/conv1d_26/BiasAdd/ReadVariableOp", "shape": [128], "dtype": "float32"}, {"name": "StatefulPartitionedCall/heavy_chain_align_airr/conv_residual_feature_extraction_block_1/conv1d_and__batch_norm_8/conv1d_27/Conv1D/ExpandDims/dim", "shape": [], "dtype": "int32"}, {"name": "StatefulPartitionedCall/heavy_chain_align_airr/conv_residual_feature_extraction_block_1/conv1d_and__batch_norm_8/conv1d_27/Conv1D/ExpandDims_1", "shape": [1, 2, 128, 128], "dtype": "float32"}, {"name": "StatefulPartitionedCall/heavy_chain_align_airr/conv_residual_feature_extraction_block_1/conv1d_and__batch_norm_8/conv1d_27/BiasAdd/ReadVariableOp", "shape": [128], "dtype": "float32"}, {"name": "StatefulPartitionedCall/heavy_chain_align_airr/conv_residual_feature_extraction_block_1/conv1d_and__batch_norm_8/batch_normalization_8/batchnorm/mul", "shape": [128], "dtype": "float32"}, {"name": "StatefulPartitionedCall/heavy_chain_align_airr/conv_residual_feature_extraction_block_1/conv1d_and__batch_norm_8/batch_normalization_8/batchnorm/sub", "shape": [128], "dtype": "float32"}, {"name": "StatefulPartitionedCall/heavy_chain_align_airr/conv_residual_feature_extraction_block_1/conv1d_and__batch_norm_8/max_pooling1d_13/ExpandDims/dim", "shape": [], "dtype": "int32"}, {"name": "StatefulPartitionedCall/heavy_chain_align_airr/conv_residual_feature_extraction_block_1/conv1d_and__batch_norm_7/conv1d_22/Conv1D/ExpandDims/dim", "shape": [], "dtype": "int32"}, {"name": "StatefulPartitionedCall/heavy_chain_align_airr/conv_residual_feature_extraction_block_1/conv1d_and__batch_norm_7/conv1d_22/Conv1D/ExpandDims_1", "shape": [1, 3, 128, 128], "dtype": "float32"}, {"name": "StatefulPartitionedCall/heavy_chain_align_airr/conv_residual_feature_extraction_block_1/conv1d_and__batch_norm_7/conv1d_22/BiasAdd/ReadVariableOp", "shape": [128], "dtype": "float32"}, {"name": "StatefulPartitionedCall/heavy_chain_align_airr/conv_residual_feature_extraction_block_1/conv1d_and__batch_norm_7/conv1d_23/Conv1D/ExpandDims/dim", "shape": [], "dtype": "int32"}, {"name": "StatefulPartitionedCall/heavy_chain_align_airr/conv_residual_feature_extraction_block_1/conv1d_and__batch_norm_7/conv1d_23/Conv1D/ExpandDims_1", "shape": [1, 3, 128, 128], "dtype": "float32"}, {"name": "StatefulPartitionedCall/heavy_chain_align_airr/conv_residual_feature_extraction_block_1/conv1d_and__batch_norm_7/conv1d_23/BiasAdd/ReadVariableOp", "shape": [128], "dtype": "float32"}, {"name": "StatefulPartitionedCall/heavy_chain_align_airr/conv_residual_feature_extraction_block_1/conv1d_and__batch_norm_7/conv1d_24/Conv1D/ExpandDims/dim", "shape": [], "dtype": "int32"}, {"name": "StatefulPartitionedCall/heavy_chain_align_airr/conv_residual_feature_extraction_block_1/conv1d_and__batch_norm_7/conv1d_24/Conv1D/ExpandDims_1", "shape": [1, 3, 128, 128], "dtype": "float32"}, {"name": "StatefulPartitionedCall/heavy_chain_align_airr/conv_residual_feature_extraction_block_1/conv1d_and__batch_norm_7/conv1d_24/BiasAdd/ReadVariableOp", "shape": [128], "dtype": "float32"}, {"name": "StatefulPartitionedCall/heavy_chain_align_airr/conv_residual_feature_extraction_block_1/conv1d_and__batch_norm_7/batch_normalization_7/batchnorm/mul", "shape": [128], "dtype": "float32"}, {"name": "StatefulPartitionedCall/heavy_chain_align_airr/conv_residual_feature_extraction_block_1/conv1d_and__batch_norm_7/batch_normalization_7/batchnorm/sub", "shape": [128], "dtype": "float32"}, {"name": "StatefulPartitionedCall/heavy_chain_align_airr/conv_residual_feature_extraction_block_1/conv1d_and__batch_norm_7/max_pooling1d_12/ExpandDims/dim", "shape": [], "dtype": "int32"}, {"name": "StatefulPartitionedCall/heavy_chain_align_airr/conv_residual_feature_extraction_block_1/conv1d_and__batch_norm_6/conv1d_19/Conv1D/ExpandDims/dim", "shape": [], "dtype": "int32"}, {"name": "StatefulPartitionedCall/heavy_chain_align_airr/conv_residual_feature_extraction_block_1/conv1d_and__batch_norm_6/conv1d_19/Conv1D/ExpandDims_1", "shape": [1, 3, 128, 128], "dtype": "float32"}, {"name": "StatefulPartitionedCall/heavy_chain_align_airr/conv_residual_feature_extraction_block_1/conv1d_and__batch_norm_6/conv1d_19/BiasAdd/ReadVariableOp", "shape": [128], "dtype": "float32"}, {"name": "StatefulPartitionedCall/heavy_chain_align_airr/conv_residual_feature_extraction_block_1/conv1d_and__batch_norm_6/conv1d_20/Conv1D/ExpandDims/dim", "shape": [], "dtype": "int32"}, {"name": "StatefulPartitionedCall/heavy_chain_align_airr/conv_residual_feature_extraction_block_1/conv1d_and__batch_norm_6/conv1d_20/Conv1D/ExpandDims_1", "shape": [1, 3, 128, 128], "dtype": "float32"}, {"name": "StatefulPartitionedCall/heavy_chain_align_airr/conv_residual_feature_extraction_block_1/conv1d_and__batch_norm_6/conv1d_20/BiasAdd/ReadVariableOp", "shape": [128], "dtype": "float32"}, {"name": "StatefulPartitionedCall/heavy_chain_align_airr/conv_residual_feature_extraction_block_1/conv1d_and__batch_norm_6/conv1d_21/Conv1D/ExpandDims/dim", "shape": [], "dtype": "int32"}, {"name": "StatefulPartitionedCall/heavy_chain_align_airr/conv_residual_feature_extraction_block_1/conv1d_and__batch_norm_6/conv1d_21/Conv1D/ExpandDims_1", "shape": [1, 3, 128, 128], "dtype": "float32"}, {"name": "StatefulPartitionedCall/heavy_chain_align_airr/conv_residual_feature_extraction_block_1/conv1d_and__batch_norm_6/conv1d_21/BiasAdd/ReadVariableOp", "shape": [128], "dtype": "float32"}, {"name": "StatefulPartitionedCall/heavy_chain_align_airr/conv_residual_feature_extraction_block_1/conv1d_and__batch_norm_6/batch_normalization_6/batchnorm/mul", "shape": [128], "dtype": "float32"}, {"name": "StatefulPartitionedCall/heavy_chain_align_airr/conv_residual_feature_extraction_block_1/conv1d_and__batch_norm_6/batch_normalization_6/batchnorm/sub", "shape": [128], "dtype": "float32"}, {"name": "StatefulPartitionedCall/heavy_chain_align_airr/conv_residual_feature_extraction_block_1/conv1d_and__batch_norm_6/max_pooling1d_11/ExpandDims/dim", "shape": [], "dtype": "int32"}, {"name": "StatefulPartitionedCall/heavy_chain_align_airr/conv_residual_feature_extraction_block_1/conv1d_and__batch_norm_5/conv1d_16/Conv1D/ExpandDims/dim", "shape": [], "dtype": "int32"}, {"name": "StatefulPartitionedCall/heavy_chain_align_airr/conv_residual_feature_extraction_block_1/conv1d_and__batch_norm_5/conv1d_16/Conv1D/ExpandDims_1", "shape": [1, 3, 32, 128], "dtype": "float32"}, {"name": "StatefulPartitionedCall/heavy_chain_align_airr/conv_residual_feature_extraction_block_1/conv1d_and__batch_norm_5/conv1d_16/BiasAdd/ReadVariableOp", "shape": [128], "dtype": "float32"}, {"name": "StatefulPartitionedCall/heavy_chain_align_airr/conv_residual_feature_extraction_block_1/conv1d_and__batch_norm_5/conv1d_17/Conv1D/ExpandDims/dim", "shape": [], "dtype": "int32"}, {"name": "StatefulPartitionedCall/heavy_chain_align_airr/conv_residual_feature_extraction_block_1/conv1d_and__batch_norm_5/conv1d_17/Conv1D/ExpandDims_1", "shape": [1, 3, 128, 128], "dtype": "float32"}, {"name": "StatefulPartitionedCall/heavy_chain_align_airr/conv_residual_feature_extraction_block_1/conv1d_and__batch_norm_5/conv1d_17/BiasAdd/ReadVariableOp", "shape": [128], "dtype": "float32"}, {"name": "StatefulPartitionedCall/heavy_chain_align_airr/conv_residual_feature_extraction_block_1/conv1d_and__batch_norm_5/conv1d_18/Conv1D/ExpandDims/dim", "shape": [], "dtype": "int32"}, {"name": "StatefulPartitionedCall/heavy_chain_align_airr/conv_residual_feature_extraction_block_1/conv1d_and__batch_norm_5/conv1d_18/Conv1D/ExpandDims_1", "shape": [1, 3, 128, 128], "dtype": "float32"}, {"name": "StatefulPartitionedCall/heavy_chain_align_airr/conv_residual_feature_extraction_block_1/conv1d_and__batch_norm_5/conv1d_18/BiasAdd/ReadVariableOp", "shape": [128], "dtype": "float32"}, {"name": "StatefulPartitionedCall/heavy_chain_align_airr/conv_residual_feature_extraction_block_1/conv1d_and__batch_norm_5/batch_normalization_5/batchnorm/mul", "shape": [128], "dtype": "float32"}, {"name": "StatefulPartitionedCall/heavy_chain_align_airr/conv_residual_feature_extraction_block_1/conv1d_and__batch_norm_5/batch_normalization_5/batchnorm/sub", "shape": [128], "dtype": "float32"}, {"name": "StatefulPartitionedCall/heavy_chain_align_airr/conv_residual_feature_extraction_block_1/conv1d_and__batch_norm_5/max_pooling1d_10/ExpandDims/dim", "shape": [], "dtype": "int32"}, {"name": "StatefulPartitionedCall/heavy_chain_align_airr/reshape/strided_slice/stack", "shape": [1], "dtype": "int32"}, {"name": "StatefulPartitionedCall/heavy_chain_align_airr/reshape/strided_slice/stack_1", "shape": [1], "dtype": "int32"}, {"name": "StatefulPartitionedCall/heavy_chain_align_airr/reshape/strided_slice/stack_2", "shape": [1], "dtype": "int32"}, {"name": "StatefulPartitionedCall/heavy_chain_align_airr/reshape/Reshape/shape/1", "shape": [], "dtype": "int32"}, {"name": "StatefulPartitionedCall/heavy_chain_align_airr/reshape/Reshape/shape/2", "shape": [], "dtype": "int32"}, {"name": "StatefulPartitionedCall/heavy_chain_align_airr/conv_residual_feature_extraction_block_1/conv1d_34/Conv1D/ExpandDims/dim", "shape": [], "dtype": "int32"}, {"name": "StatefulPartitionedCall/heavy_chain_align_airr/conv_residual_feature_extraction_block_1/conv1d_34/Conv1D/ExpandDims_1", "shape": [1, 5, 32, 128], "dtype": "float32"}, {"name": "StatefulPartitionedCall/heavy_chain_align_airr/conv_residual_feature_extraction_block_1/conv1d_34/BiasAdd/ReadVariableOp", "shape": [128], "dtype": "float32"}, {"name": "StatefulPartitionedCall/heavy_chain_align_airr/conv_residual_feature_extraction_block_1/max_pooling1d_16/ExpandDims/dim", "shape": [], "dtype": "int32"}, {"name": "StatefulPartitionedCall/heavy_chain_align_airr/conv_residual_feature_extraction_block_1/max_pooling1d_16/ExpandDims_1/dim", "shape": [], "dtype": "int32"}, {"name": "StatefulPartitionedCall/heavy_chain_align_airr/conv_residual_feature_extraction_block_1/max_pooling1d_17/ExpandDims/dim", "shape": [], "dtype": "int32"}, {"name": "StatefulPartitionedCall/heavy_chain_align_airr/conv_residual_feature_extraction_block_1/max_pooling1d_18/ExpandDims/dim", "shape": [], "dtype": "int32"}, {"name": "StatefulPartitionedCall/heavy_chain_align_airr/conv_residual_feature_extraction_block_1/max_pooling1d_19/ExpandDims/dim", "shape": [], "dtype": "int32"}, {"name": "StatefulPartitionedCall/heavy_chain_align_airr/conv_residual_feature_extraction_block_1/max_pooling1d_20/ExpandDims/dim", "shape": [], "dtype": "int32"}, {"name": "StatefulPartitionedCall/heavy_chain_align_airr/conv_residual_feature_extraction_block_1/max_pooling1d_21/ExpandDims/dim", "shape": [], "dtype": "int32"}, {"name": "StatefulPartitionedCall/heavy_chain_align_airr/conv_residual_feature_extraction_block_1/flatten_1/Const", "shape": [2], "dtype": "int32"}, {"name": "StatefulPartitionedCall/heavy_chain_align_airr/v_allele_middle/MatMul/ReadVariableOp", "shape": [512, 396], "dtype": "float32"}, {"name": "StatefulPartitionedCall/heavy_chain_align_airr/v_allele_middle/BiasAdd/ReadVariableOp", "shape": [396], "dtype": "float32"}, {"name": "StatefulPartitionedCall/heavy_chain_align_airr/v_allele/MatMul/ReadVariableOp", "shape": [396, 198], "dtype": "float32"}, {"name": "StatefulPartitionedCall/heavy_chain_align_airr/v_allele/BiasAdd/ReadVariableOp", "shape": [198], "dtype": "float32"}, {"name": "StatefulPartitionedCall/heavy_chain_align_airr/conv_residual_feature_extraction_block/conv1d_and__batch_norm_4/conv1d_12/Conv1D/ExpandDims/dim", "shape": [], "dtype": "int32"}, {"name": "StatefulPartitionedCall/heavy_chain_align_airr/conv_residual_feature_extraction_block/conv1d_and__batch_norm_4/conv1d_12/Conv1D/ExpandDims_1", "shape": [1, 5, 64, 64], "dtype": "float32"}, {"name": "StatefulPartitionedCall/heavy_chain_align_airr/conv_residual_feature_extraction_block/conv1d_and__batch_norm_4/conv1d_12/BiasAdd/ReadVariableOp", "shape": [64], "dtype": "float32"}, {"name": "StatefulPartitionedCall/heavy_chain_align_airr/conv_residual_feature_extraction_block/conv1d_and__batch_norm_4/conv1d_13/Conv1D/ExpandDims/dim", "shape": [], "dtype": "int32"}, {"name": "StatefulPartitionedCall/heavy_chain_align_airr/conv_residual_feature_extraction_block/conv1d_and__batch_norm_4/conv1d_13/Conv1D/ExpandDims_1", "shape": [1, 5, 64, 64], "dtype": "float32"}, {"name": "StatefulPartitionedCall/heavy_chain_align_airr/conv_residual_feature_extraction_block/conv1d_and__batch_norm_4/conv1d_13/BiasAdd/ReadVariableOp", "shape": [64], "dtype": "float32"}, {"name": "StatefulPartitionedCall/heavy_chain_align_airr/conv_residual_feature_extraction_block/conv1d_and__batch_norm_4/conv1d_14/Conv1D/ExpandDims/dim", "shape": [], "dtype": "int32"}, {"name": "StatefulPartitionedCall/heavy_chain_align_airr/conv_residual_feature_extraction_block/conv1d_and__batch_norm_4/conv1d_14/Conv1D/ExpandDims_1", "shape": [1, 5, 64, 64], "dtype": "float32"}, {"name": "StatefulPartitionedCall/heavy_chain_align_airr/conv_residual_feature_extraction_block/conv1d_and__batch_norm_4/conv1d_14/BiasAdd/ReadVariableOp", "shape": [64], "dtype": "float32"}, {"name": "StatefulPartitionedCall/heavy_chain_align_airr/conv_residual_feature_extraction_block/conv1d_and__batch_norm_4/batch_normalization_4/batchnorm/mul", "shape": [64], "dtype": "float32"}, {"name": "StatefulPartitionedCall/heavy_chain_align_airr/conv_residual_feature_extraction_block/conv1d_and__batch_norm_4/batch_normalization_4/batchnorm/sub", "shape": [64], "dtype": "float32"}, {"name": "StatefulPartitionedCall/heavy_chain_align_airr/conv_residual_feature_extraction_block/conv1d_and__batch_norm_4/max_pooling1d_4/ExpandDims/dim", "shape": [], "dtype": "int32"}, {"name": "StatefulPartitionedCall/heavy_chain_align_airr/conv_residual_feature_extraction_block/conv1d_and__batch_norm_3/conv1d_9/Conv1D/ExpandDims/dim", "shape": [], "dtype": "int32"}, {"name": "StatefulPartitionedCall/heavy_chain_align_airr/conv_residual_feature_extraction_block/conv1d_and__batch_norm_3/conv1d_9/Conv1D/ExpandDims_1", "shape": [1, 3, 64, 64], "dtype": "float32"}, {"name": "StatefulPartitionedCall/heavy_chain_align_airr/conv_residual_feature_extraction_block/conv1d_and__batch_norm_3/conv1d_9/BiasAdd/ReadVariableOp", "shape": [64], "dtype": "float32"}, {"name": "StatefulPartitionedCall/heavy_chain_align_airr/conv_residual_feature_extraction_block/conv1d_and__batch_norm_3/conv1d_10/Conv1D/ExpandDims/dim", "shape": [], "dtype": "int32"}, {"name": "StatefulPartitionedCall/heavy_chain_align_airr/conv_residual_feature_extraction_block/conv1d_and__batch_norm_3/conv1d_10/Conv1D/ExpandDims_1", "shape": [1, 3, 64, 64], "dtype": "float32"}, {"name": "StatefulPartitionedCall/heavy_chain_align_airr/conv_residual_feature_extraction_block/conv1d_and__batch_norm_3/conv1d_10/BiasAdd/ReadVariableOp", "shape": [64], "dtype": "float32"}, {"name": "StatefulPartitionedCall/heavy_chain_align_airr/conv_residual_feature_extraction_block/conv1d_and__batch_norm_3/conv1d_11/Conv1D/ExpandDims/dim", "shape": [], "dtype": "int32"}, {"name": "StatefulPartitionedCall/heavy_chain_align_airr/conv_residual_feature_extraction_block/conv1d_and__batch_norm_3/conv1d_11/Conv1D/ExpandDims_1", "shape": [1, 3, 64, 64], "dtype": "float32"}, {"name": "StatefulPartitionedCall/heavy_chain_align_airr/conv_residual_feature_extraction_block/conv1d_and__batch_norm_3/conv1d_11/BiasAdd/ReadVariableOp", "shape": [64], "dtype": "float32"}, {"name": "StatefulPartitionedCall/heavy_chain_align_airr/conv_residual_feature_extraction_block/conv1d_and__batch_norm_3/batch_normalization_3/batchnorm/mul", "shape": [64], "dtype": "float32"}, {"name": "StatefulPartitionedCall/heavy_chain_align_airr/conv_residual_feature_extraction_block/conv1d_and__batch_norm_3/batch_normalization_3/batchnorm/sub", "shape": [64], "dtype": "float32"}, {"name": "StatefulPartitionedCall/heavy_chain_align_airr/conv_residual_feature_extraction_block/conv1d_and__batch_norm_3/max_pooling1d_3/ExpandDims/dim", "shape": [], "dtype": "int32"}, {"name": "StatefulPartitionedCall/heavy_chain_align_airr/conv_residual_feature_extraction_block/conv1d_and__batch_norm_2/conv1d_6/Conv1D/ExpandDims/dim", "shape": [], "dtype": "int32"}, {"name": "StatefulPartitionedCall/heavy_chain_align_airr/conv_residual_feature_extraction_block/conv1d_and__batch_norm_2/conv1d_6/Conv1D/ExpandDims_1", "shape": [1, 5, 64, 64], "dtype": "float32"}, {"name": "StatefulPartitionedCall/heavy_chain_align_airr/conv_residual_feature_extraction_block/conv1d_and__batch_norm_2/conv1d_6/BiasAdd/ReadVariableOp", "shape": [64], "dtype": "float32"}, {"name": "StatefulPartitionedCall/heavy_chain_align_airr/conv_residual_feature_extraction_block/conv1d_and__batch_norm_2/conv1d_7/Conv1D/ExpandDims/dim", "shape": [], "dtype": "int32"}, {"name": "StatefulPartitionedCall/heavy_chain_align_airr/conv_residual_feature_extraction_block/conv1d_and__batch_norm_2/conv1d_7/Conv1D/ExpandDims_1", "shape": [1, 5, 64, 64], "dtype": "float32"}, {"name": "StatefulPartitionedCall/heavy_chain_align_airr/conv_residual_feature_extraction_block/conv1d_and__batch_norm_2/conv1d_7/BiasAdd/ReadVariableOp", "shape": [64], "dtype": "float32"}, {"name": "StatefulPartitionedCall/heavy_chain_align_airr/conv_residual_feature_extraction_block/conv1d_and__batch_norm_2/conv1d_8/Conv1D/ExpandDims/dim", "shape": [], "dtype": "int32"}, {"name": "StatefulPartitionedCall/heavy_chain_align_airr/conv_residual_feature_extraction_block/conv1d_and__batch_norm_2/conv1d_8/Conv1D/ExpandDims_1", "shape": [1, 5, 64, 64], "dtype": "float32"}, {"name": "StatefulPartitionedCall/heavy_chain_align_airr/conv_residual_feature_extraction_block/conv1d_and__batch_norm_2/conv1d_8/BiasAdd/ReadVariableOp", "shape": [64], "dtype": "float32"}, {"name": "StatefulPartitionedCall/heavy_chain_align_airr/conv_residual_feature_extraction_block/conv1d_and__batch_norm_2/batch_normalization_2/batchnorm/mul", "shape": [64], "dtype": "float32"}, {"name": "StatefulPartitionedCall/heavy_chain_align_airr/conv_residual_feature_extraction_block/conv1d_and__batch_norm_2/batch_normalization_2/batchnorm/sub", "shape": [64], "dtype": "float32"}, {"name": "StatefulPartitionedCall/heavy_chain_align_airr/conv_residual_feature_extraction_block/conv1d_and__batch_norm_2/max_pooling1d_2/ExpandDims/dim", "shape": [], "dtype": "int32"}, {"name": "StatefulPartitionedCall/heavy_chain_align_airr/conv_residual_feature_extraction_block/conv1d_and__batch_norm_1/conv1d_3/Conv1D/ExpandDims/dim", "shape": [], "dtype": "int32"}, {"name": "StatefulPartitionedCall/heavy_chain_align_airr/conv_residual_feature_extraction_block/conv1d_and__batch_norm_1/conv1d_3/Conv1D/ExpandDims_1", "shape": [1, 5, 64, 64], "dtype": "float32"}, {"name": "StatefulPartitionedCall/heavy_chain_align_airr/conv_residual_feature_extraction_block/conv1d_and__batch_norm_1/conv1d_3/BiasAdd/ReadVariableOp", "shape": [64], "dtype": "float32"}, {"name": "StatefulPartitionedCall/heavy_chain_align_airr/conv_residual_feature_extraction_block/conv1d_and__batch_norm_1/conv1d_4/Conv1D/ExpandDims/dim", "shape": [], "dtype": "int32"}, {"name": "StatefulPartitionedCall/heavy_chain_align_airr/conv_residual_feature_extraction_block/conv1d_and__batch_norm_1/conv1d_4/Conv1D/ExpandDims_1", "shape": [1, 5, 64, 64], "dtype": "float32"}, {"name": "StatefulPartitionedCall/heavy_chain_align_airr/conv_residual_feature_extraction_block/conv1d_and__batch_norm_1/conv1d_4/BiasAdd/ReadVariableOp", "shape": [64], "dtype": "float32"}, {"name": "StatefulPartitionedCall/heavy_chain_align_airr/conv_residual_feature_extraction_block/conv1d_and__batch_norm_1/conv1d_5/Conv1D/ExpandDims/dim", "shape": [], "dtype": "int32"}, {"name": "StatefulPartitionedCall/heavy_chain_align_airr/conv_residual_feature_extraction_block/conv1d_and__batch_norm_1/conv1d_5/Conv1D/ExpandDims_1", "shape": [1, 5, 64, 64], "dtype": "float32"}, {"name": "StatefulPartitionedCall/heavy_chain_align_airr/conv_residual_feature_extraction_block/conv1d_and__batch_norm_1/conv1d_5/BiasAdd/ReadVariableOp", "shape": [64], "dtype": "float32"}, {"name": "StatefulPartitionedCall/heavy_chain_align_airr/conv_residual_feature_extraction_block/conv1d_and__batch_norm_1/batch_normalization_1/batchnorm/mul", "shape": [64], "dtype": "float32"}, {"name": "StatefulPartitionedCall/heavy_chain_align_airr/conv_residual_feature_extraction_block/conv1d_and__batch_norm_1/batch_normalization_1/batchnorm/sub", "shape": [64], "dtype": "float32"}, {"name": "StatefulPartitionedCall/heavy_chain_align_airr/conv_residual_feature_extraction_block/conv1d_and__batch_norm_1/max_pooling1d_1/ExpandDims/dim", "shape": [], "dtype": "int32"}, {"name": "StatefulPartitionedCall/heavy_chain_align_airr/conv_residual_feature_extraction_block/conv1d_and__batch_norm/conv1d/Conv1D/ExpandDims/dim", "shape": [], "dtype": "int32"}, {"name": "StatefulPartitionedCall/heavy_chain_align_airr/conv_residual_feature_extraction_block/conv1d_and__batch_norm/conv1d/Conv1D/ExpandDims_1", "shape": [1, 2, 32, 64], "dtype": "float32"}, {"name": "StatefulPartitionedCall/heavy_chain_align_airr/conv_residual_feature_extraction_block/conv1d_and__batch_norm/conv1d/BiasAdd/ReadVariableOp", "shape": [64], "dtype": "float32"}, {"name": "StatefulPartitionedCall/heavy_chain_align_airr/conv_residual_feature_extraction_block/conv1d_and__batch_norm/conv1d_1/Conv1D/ExpandDims/dim", "shape": [], "dtype": "int32"}, {"name": "StatefulPartitionedCall/heavy_chain_align_airr/conv_residual_feature_extraction_block/conv1d_and__batch_norm/conv1d_1/Conv1D/ExpandDims_1", "shape": [1, 2, 64, 64], "dtype": "float32"}, {"name": "StatefulPartitionedCall/heavy_chain_align_airr/conv_residual_feature_extraction_block/conv1d_and__batch_norm/conv1d_1/BiasAdd/ReadVariableOp", "shape": [64], "dtype": "float32"}, {"name": "StatefulPartitionedCall/heavy_chain_align_airr/conv_residual_feature_extraction_block/conv1d_and__batch_norm/conv1d_2/Conv1D/ExpandDims/dim", "shape": [], "dtype": "int32"}, {"name": "StatefulPartitionedCall/heavy_chain_align_airr/conv_residual_feature_extraction_block/conv1d_and__batch_norm/conv1d_2/Conv1D/ExpandDims_1", "shape": [1, 2, 64, 64], "dtype": "float32"}, {"name": "StatefulPartitionedCall/heavy_chain_align_airr/conv_residual_feature_extraction_block/conv1d_and__batch_norm/conv1d_2/BiasAdd/ReadVariableOp", "shape": [64], "dtype": "float32"}, {"name": "StatefulPartitionedCall/heavy_chain_align_airr/conv_residual_feature_extraction_block/conv1d_and__batch_norm/batch_normalization/batchnorm/mul", "shape": [64], "dtype": "float32"}, {"name": "StatefulPartitionedCall/heavy_chain_align_airr/conv_residual_feature_extraction_block/conv1d_and__batch_norm/batch_normalization/batchnorm/sub", "shape": [64], "dtype": "float32"}, {"name": "StatefulPartitionedCall/heavy_chain_align_airr/conv_residual_feature_extraction_block/conv1d_and__batch_norm/max_pooling1d/ExpandDims/dim", "shape": [], "dtype": "int32"}, {"name": "unknown_0", "shape": [6, 32], "dtype": "float32"}, {"name": "StatefulPartitionedCall/heavy_chain_align_airr/Reshape/shape", "shape": [2], "dtype": "int32"}, {"name": "StatefulPartitionedCall/heavy_chain_align_airr/token_and_position_embedding/embedding/embedding_lookup/axis", "shape": [], "dtype": "int32"}, {"name": "StatefulPartitionedCall/heavy_chain_align_airr/token_and_position_embedding/embedding_1/embedding_lookup", "shape": [512, 32], "dtype": "float32"}, {"name": "StatefulPartitionedCall/heavy_chain_align_airr/conv_residual_feature_extraction_block/conv1d_15/Conv1D/ExpandDims/dim", "shape": [], "dtype": "int32"}, {"name": "StatefulPartitionedCall/heavy_chain_align_airr/conv_residual_feature_extraction_block/conv1d_15/Conv1D/ExpandDims_1", "shape": [1, 5, 32, 64], "dtype": "float32"}, {"name": "StatefulPartitionedCall/heavy_chain_align_airr/conv_residual_feature_extraction_block/conv1d_15/BiasAdd/ReadVariableOp", "shape": [64], "dtype": "float32"}, {"name": "StatefulPartitionedCall/heavy_chain_align_airr/conv_residual_feature_extraction_block/max_pooling1d_5/ExpandDims/dim", "shape": [], "dtype": "int32"}, {"name": "StatefulPartitionedCall/heavy_chain_align_airr/conv_residual_feature_extraction_block/max_pooling1d_5/ExpandDims_1/dim", "shape": [], "dtype": "int32"}, {"name": "StatefulPartitionedCall/heavy_chain_align_airr/conv_residual_feature_extraction_block/max_pooling1d_6/ExpandDims/dim", "shape": [], "dtype": "int32"}, {"name": "StatefulPartitionedCall/heavy_chain_align_airr/conv_residual_feature_extraction_block/max_pooling1d_7/ExpandDims/dim", "shape": [], "dtype": "int32"}, {"name": "StatefulPartitionedCall/heavy_chain_align_airr/conv_residual_feature_extraction_block/max_pooling1d_8/ExpandDims/dim", "shape": [], "dtype": "int32"}, {"name": "StatefulPartitionedCall/heavy_chain_align_airr/conv_residual_feature_extraction_block/max_pooling1d_9/ExpandDims/dim", "shape": [], "dtype": "int32"}, {"name": "StatefulPartitionedCall/heavy_chain_align_airr/conv_residual_feature_extraction_block/flatten/Const", "shape": [2], "dtype": "int32"}, {"name": "StatefulPartitionedCall/heavy_chain_align_airr/dense/MatMul/ReadVariableOp", "shape": [512, 128], "dtype": "float32"}, {"name": "StatefulPartitionedCall/heavy_chain_align_airr/dense/BiasAdd/ReadVariableOp", "shape": [128], "dtype": "float32"}, {"name": "StatefulPartitionedCall/heavy_chain_align_airr/v_segment/MatMul/ReadVariableOp", "shape": [128, 512], "dtype": "float32"}, {"name": "StatefulPartitionedCall/heavy_chain_align_airr/v_segment/BiasAdd/ReadVariableOp", "shape": [512], "dtype": "float32"}]}]}